pretrained_model/ZeroDCE_SDAG.pth (torch, 322669 bytes, 14 tensors)

e_conv1.weight f4 [32, 3, 3, 3]
000000 24 a3 46 bc a5 c4 56 b8 35 ea 7f 3c c2 8c 36 3c
       -0.012123857 -5.1204715e-05 0.015619804 0.011141958
000010 b9 8f 45 3b 67 0a c8 3b 90 a8 e8 3b a1 ea 3d bc
       0.003014548 0.0061047557 0.0071001723 -0.011591584
000020 74 02 1f bc aa ec 54 3c 68 a6 03 bc 9c 64 14 bc
       -0.009705175 0.012995878 -0.00803528 -0.00905719
000030 82 89 a1 3c ae 3f 0b 3d fb df 09 3c a9 9e 60 bc
       0.01971889 0.033996277 0.0084152175 -0.0137097025
000040 83 86 14 3b d7 84 c7 bc 00 2c c3 3b 01 0d e1 3c
       0.0022663183 -0.024355335 0.005956173 0.027472021
000050 7c dc c9 bc 49 9a 7c 3d 52 eb 33 3b f3 e6 94 3b
       -0.024641268 0.061670575 0.0027453494 0.004544133
000060 80 43 e7 3a cb df 8b 3b e8 ae 73 bb 2e 36 af bc
       0.0017644018 0.0042686216 -0.003718311 -0.02138814
000070 98 6d 0a 3b 34 a0 15 bb 8e 35 48 ba b3 45 08 bb
       0.0021122452 -0.0022831084 -0.0007637375 -0.0020793497
000080 d1 2a d3 bb 82 a8 c6 3b 75 ad 01 3d 71 96 4f bb
       -0.006444313 0.006062568 0.031659562 -0.0031675363
000090 b5 c9 0a 3b 5b 9b 39 3d cf a0 4a 3c 8c 84 23 bb
       0.0021177356 0.045314174 0.012367441 -0.002495083
0000a0 35 1f 8a bc 47 79 e2 bb e2 b8 39 3c d9 25 8a bb
       -0.016860584 -0.00691143 0.011335583 -0.0042159376
0000b0 3e 5c 13 3a b8 79 81 3a f0 fe 4b 3c 61 a9 15 3b
       0.000562135 0.0009878194 0.012450919 0.0022836553
0000c0 f7 78 e0 3a 1f a2 0f 3b a5 c9 90 bb 29 c0 15 bb
       0.0017125894 0.00219167 -0.004418569 -0.0022850132
0000d0 33 41 1a bb cd bc b9 39 10 2a 2d bc 07 51 f5 bb
       -0.0023537397 0.00035426617 -0.0105691105 -0.007486466
0000e0 5f 65 68 3d 74 e7 f2 3c 88 02 ad ba 5b a8 85 bc
       0.0567373 0.029651381 -0.0013199607 -0.01631563
0000f0 95 35 ab bc a2 16 e8 bc a5 60 7a bb e4 37 25 3c
       -0.020899573 -0.028331105 -0.0038204577 0.010084126
000100 70 77 35 bd b5 29 44 bc 3b be 2a bc 0d f3 50 3c
       -0.044303358 -0.011972834 -0.010421331 0.01275326
000110 5e f1 42 bb a1 21 cc bc cd b0 31 3b a1 8b e3 bb
       -0.0029745917 -0.02491838 0.0027113438 -0.0069441353
000120 e8 e1 9c bb 6e d0 f7 3c 3f 78 d7 bc 07 fc 94 3b
       -0.0047876723 0.030250754 -0.026302455 0.0045466456
000130 80 99 c8 3a cb 99 a0 bc 00 89 75 39 3d 5b 68 3d
       0.0015304536 -0.019604584 0.00023416057 0.056727637
000140 9b e2 56 bc 4b 01 46 3b e2 27 78 3a a1 42 eb 3c
       -0.01311555 0.0030213173 0.0009466392 0.028718295
000150 05 cf 46 bd d1 a5 b0 3b 94 db f2 3c db 14 74 bc
       -0.048537273 0.0053908606 0.029645719 -0.01489755
000160 db 10 88 3c 54 99 12 bd 5a 63 9e bc de a6 0a bd
       0.0166096 -0.035790756 -0.019334484 -0.033850543
000170 74 54 27 bc 6e 67 d2 3b c9 24 3a 3c f3 e6 99 bc
       -0.010213006 0.006421021 0.011361309 -0.018786883
000180 0f e4 b5 3c 8a b4 28 bc ab 92 36 3b 27 e0 2c bb
       0.022203473 -0.01029695 0.0027858417 -0.0026378722
000190 5f 84 f0 b9 da 8f 66 3c 57 d3 47 3c 3f d7 00 b9
       -0.0004587499 0.014072383 0.012196383 -0.00012287217
0001a0 86 35 9e bb 65 18 96 bb c1 57 e1 bc c8 91 90 ba
       -0.004828158 -0.004580545 -0.027507665 -0.0011029774
0001b0 fc 08 56 3b 0f 86 d5 3b 2c 78 b1 bb dc 82 82 bb
       0.0032659164 0.006516225 -0.005415937 -0.003982885
0001c0 40 c3 ff 3b 0d a7 95 bc 1d 69 7a 3c 36 e3 b8 3b
       0.007805258 -0.018268133 0.01528385 0.00564232
0001d0 29 c5 29 bd 6f 56 10 3d 3e 90 53 3b 1e 00 a9 3c
       -0.041447792 0.03523868 0.003228202 0.020629939
0001e0 13 38 c8 ba 85 72 9f 3c ab c2 49 bc 7e a6 11 bb
       -0.00152755 0.019463787 -0.012314479 -0.0022224481
0001f0 7d 85 a0 bc 8a 05 a8 3b 53 38 69 bc b9 53 20 3b
       -0.019594902 0.0051276134 -0.01423462 0.0024463965
000200 52 01 82 ba 11 b7 43 3a 4f bf ba 3a 78 0a 29 bc
       -0.0009918606 0.00074659387 0.0014247688 -0.010317437
000210 df ba c1 ba 5f 89 cc bc d9 07 5d 3b 31 f4 b0 3c
       -0.0014780423 -0.024967847 0.0033726601 0.021600815
000220 94 36 90 38 bb ba 27 3c 07 70 67 bc ca 54 90 3c
       6.876621e-05 0.010237391 -0.0141258305 0.017618556
000230 b8 cd 61 bc 52 0c be bc fa 39 ca bb 36 bf f4 bb
       -0.013781957 -0.023199234 -0.006171462 -0.007469083
000240 e9 9c 37 bc 0b 6a 99 38 0e 16 0b bb 10 3b 96 3c
       -0.011206844 7.3153606e-05 -0.0021222862 0.01833871
000250 ea 03 e0 3c e1 d2 1e bc 73 20 2e 3d 2f 22 1b 3d
       0.027345616 -0.009693832 0.042511415 0.037874397
000260 f7 11 90 bb 0f 78 e1 39 1f e0 85 3c 05 ee 8f 3c
       -0.004396673 0.00043004795 0.01634222 0.017569551
000270 7f cb 01 bc a5 4a 98 3c 9c 07 15 3b 49 16 08 3c
       -0.007922052 0.01859028 0.0022740131 0.008306094
000280 d4 73 96 3b 1e e1 38 3c 91 47 49 3a e9 36 f6 3a
       0.0045914445 0.011284141 0.0007678206 0.0018784675
000290 d8 12 1b 3c 2f d1 cb 3b 7d c2 01 bc 24 39 09 bc
       0.009464942 0.006220005 -0.007919905 -0.00837544
0002a0 32 59 03 bd e0 96 f8 bb 93 ba 6e bc c5 83 91 bc
       -0.032067485 -0.007586345 -0.01457085 -0.017763028
0002b0 4a 3c df ba a9 af 6c bc 33 65 2e bb 61 fa 8a 3c
       -0.0017031517 -0.0144461775 -0.0026610612 0.016965093
0002c0 35 5a b0 bc e1 bf 4f 3c 20 d5 37 bb 4b 2e 19 3d
       -0.021527389 0.012680025 -0.0028050616 0.037397664
0002d0 dd 34 83 3b f8 51 3c 3d 20 1b ee 3a 80 9f 03 3c
       0.0040041045 0.04597661 0.0018166043 0.008033633
0002e0 7f 24 36 bd 9d ef 96 3c 1c c7 cf b9 a4 71 ed b8
       -0.0444684 0.018424803 -0.00039630465 -0.00011322208
0002f0 6b c4 e7 bb 71 dd 32 bc 42 17 88 3c 30 9b ac 3b
       -0.0070729754 -0.010917054 0.016612653 0.005267523
000300 6d 65 e3 bb 16 00 42 bc d7 86 62 bc 37 b7 99 3b
       -0.006939581 -0.011840841 -0.013826094 0.0046910304
000310 fe b5 07 3d d6 cc 30 bc b9 52 7a 3c a9 82 1f 3c
       0.033132546 -0.010791024 0.015278512 0.009735742
000320 16 f7 7f bb c3 28 7c bb 7b 5c 3e bb 8d 4b 5f bc
       -0.0039057187 -0.0038476444 -0.0029046822 -0.013628853
000330 c7 1a 1b 3d 9f ff c9 3a e6 8a 88 bc 36 5f 8a bc
       0.037867334 0.0015411264 -0.016667794 -0.016891103
000340 ba 3d 9f 3b 6f da a9 bb 8a 57 51 39 ce f6 1e 3b
       0.0048596533 -0.00518351 0.00019964404 0.0024255994
000350 e0 a2 5e bb 26 8a ba bc 72 48 8a bc 42 cc 2f 3c
       -0.0033971593 -0.022770952 -0.016880248 0.010729851
000360 09 81 e1 bb 6e 1c f6 3b 57 fc 11 ba 06 fb 6a bc
       -0.0068818373 0.0075107133 -0.00055689126 -0.014342075
000370 ba 4f 38 3c 56 36 40 bb bb e2 c2 3c 5b 71 d6 bb
       0.011249477 -0.0029329262 0.023789754 -0.0065442747
000380 b8 dc 62 3b c1 a4 dc 3b 21 9c 07 bc 54 59 93 3c
       0.0034616422 0.0067335074 -0.00827697 0.01798693
000390 0e 4f 9a bc 26 a7 3e 3c 88 28 2a bc 6d 53 82 bc
       -0.018836524 0.011636531 -0.01038564 -0.015908921
0003a0 2e 1e da bb 81 9f 5b 3c b5 94 67 3c ac 68 8c ba
       -0.0066564297 0.013404728 0.014134576 -0.0010712347
0003b0 e1 c5 22 bd b8 1c 3c bc 18 74 87 bc 80 61 3a bc
       -0.039739493 -0.011481456 -0.01653485 -0.011375785
0003c0 9c 05 36 3d be 59 19 bd e4 ec 03 bc 2e 25 90 bc
       0.044438943 -0.0374391 -0.008052085 -0.017595854
0003d0 a6 38 b1 b9 63 b9 c3 3b c3 20 71 ba 8e a9 21 39
       -0.00033802277 0.0059730276 -0.0009198302 0.0001541732
0003e0 bb e6 4a bc 38 d3 df 3a e9 eb 9e bc 77 cd 74 bc
       -0.012384112 0.0017076498 -0.0193996 -0.014941565
0003f0 ad 41 f5 bc 9a 2f e6 3c 5e 20 15 bb fd 6d 2f bd
       -0.029938543 0.02809887 -0.0022754888 -0.042829502

e_conv1.bias f4 [32]
000000 25 f1 f6 39 9e 9e fd bc ff 47 19 3e 69 55 32 be
       0.00047100443 -0.030959424 0.1496887 -0.17415394
000010 e9 52 1d be dc bc 34 be 27 62 1a be 1b b3 f5 bd
       -0.15363659 -0.17650169 -0.15076505 -0.11997052
000020 00 b0 2a 3e b0 6e 06 3e 5f 6b 00 3e 8d 2c 54 bd
       0.16668701 0.13128161 0.12540959 -0.0518003
000030 e3 5d 00 3e d9 a8 1a 3d 03 5a 44 3e ab af f0 3d
       0.12535815 0.037758682 0.19174962 0.11752256
000040 98 76 ad 3c 4d e7 11 3e f1 85 8f bd 4b b0 0c 3e
       0.021174714 0.1424839 -0.07007969 0.13739125
000050 98 d5 94 bd 06 5b 1f 3e a5 94 15 3e 9b e2 0a 3e
       -0.07267302 0.15562066 0.14607485 0.13563006
000060 9a 46 fe 3d 0b ae d0 bd 5f c8 25 3e eb 18 1b be
       0.1241581 -0.10189446 0.16189717 -0.15146224
000070 91 2c 4e bc b3 8d 00 be e5 fc 94 3d bc ad 59 3d
       -0.012583868 -0.12554054 0.07274798 0.0531442

e_conv2.weight f4 [32, 32, 3, 3]
000000 b4 36 2f bc 5e 49 05 bc 92 99 9d bc 68 34 f4 3b
       -0.010694195 -0.008135168 -0.019238267 0.0074525364
000010 a7 9d 93 bc 00 3f cd 3c 9f 2b 24 3c e9 fa c1 bb
       -0.01801951 0.025054455 0.010020166 -0.0059198034
000020 25 f4 09 3c 37 8b eb 3c dd 5c 8f 3c 40 03 c2 bc
       0.008420025 0.028752906 0.017500335 -0.02368319
000030 83 41 ad bb 12 a0 38 bc 26 05 9a 3c 97 21 a2 3c
       -0.0052873506 -0.0112686325 0.018801283 0.019791408
000040 82 c3 aa bb e5 b7 68 3c 79 71 c8 3c f9 f2 e7 3c
       -0.0052112946 0.014204 0.02446817 0.0283141
000050 24 0d 57 bb 18 78 ec 3b 1c 4e 43 bb d0 4c a9 3c
       -0.003281423 0.0072164647 -0.0029801195 0.02066651
000060 26 5f 85 3b c8 5f b8 bc ee 57 9c ba 76 f2 a2 39
       0.0040701805 -0.02250661 -0.001192806 0.00031079695
000070 dc 4f 21 bc e1 2b 78 3b 9b 04 a5 3b b0 14 12 bc
       -0.0098457 0.003786795 0.0050359494 -0.008916065
000080 bd 7f f0 ba 28 66 2b bc ac a4 67 bc 28 df 2e bb
       -0.0018348616 -0.010461368 -0.014138382 -0.0026683304
000090 d8 26 f1 39 04 a5 78 3c 84 a9 ef 3c 58 50 44 bc
       0.00045996043 0.015176062 0.029255636 -0.011982046
0000a0 d4 52 5b bb 7e 99 94 3a 47 27 64 3c 1a 65 5c bc
       -0.0033466117 0.0011337248 0.01392538 -0.013451839
0000b0 4e 79 6f bb d3 de 63 3c b6 41 59 bc 2f 79 89 3b
       -0.003654081 0.013908106 -0.013260296 0.0041953544
0000c0 e3 c6 e9 3a 05 7d c0 3b f0 35 80 39 a8 d5 58 3c
       0.0017835762 0.0058742785 0.0002445425 0.013234533
0000d0 41 54 0f 3c 06 d3 aa 39 fa 76 68 3b dd 52 f3 3b
       0.008748115 0.00032582151 0.0035471306 0.0074256496
0000e0 bf d2 c7 bc 34 69 ba 3a 8e eb cb bb 93 be 01 bc
       -0.024392484 0.0014222027 -0.0062231487 -0.007918972
0000f0 70 ce 12 39 5d 2b 8a 3b 44 f3 d9 3a 9d e1 63 3b
       0.00014000549 0.004216595 0.0016628285 0.0034771927
000100 e4 29 e6 bc ef 98 a1 39 3e 0d 0c bb ef 23 43 bc
       -0.028096147 0.00030822257 -0.0021370198 -0.011910423
000110 2c 68 e5 3a c1 5f 8e 3a bb d6 59 3c b1 ea 93 bc
       0.0017502359 0.0010862277 0.013295825 -0.018056246
000120 93 68 96 3c e0 1d 65 bc 99 f2 12 bd 74 28 1a bb
       0.018360412 -0.013984174 -0.03587589 -0.0023522647
000130 73 9b c9 bc 27 53 2c 3b bf f5 51 3c 65 cf c2 3a
       -0.024610257 0.002629468 0.012814938 0.0014862834
000140 07 73 7d 3b 94 08 1b bd 0c 30 97 3c 70 6b e2 bc
       0.0038673298 -0.037849978 0.018455528 -0.02763912
000150 77 00 e3 bb 99 cb a7 3c c6 4a 84 bc b6 4c 90 3c
       -0.0069275456 0.020482825 -0.016148936 0.017614704
000160 d3 0d bd bb aa e5 71 bc d5 70 dd 39 a3 6b ca ba
       -0.0057694702 -0.014764229 0.0004223647 -0.0015443455
000170 71 82 f9 39 ac 2f ed bc 0b 77 1a 3d 42 cf b2 ba
       0.00047590167 -0.028953396 0.037711184 -0.001364209
000180 ae 71 61 bb 42 29 51 3c 48 96 89 bc b7 c9 f9 3c
       -0.0034400034 0.012766184 -0.016795292 0.030491693
000190 73 06 bd 3c 41 87 20 3c d9 ae a0 3a e1 8a 27 bc
       0.023074364 0.009797872 0.001225914 -0.010225982
0001a0 1e f8 c8 3c 34 2b 93 3b 34 1c e7 bb 02 f2 b2 3a
       0.024532374 0.004491234 -0.0070529226 0.0013652446
0001b0 08 f2 8f bc eb c7 95 3c d8 e8 1a 3d 6b 98 11 39
       -0.017571464 0.018283805 0.037819713 0.00013885058
0001c0 0c 7a ef 3b da 53 7a bc 8c 91 83 3c 9e e6 b1 3a
       0.0073082503 -0.015278781 0.016060613 0.0013572758
0001d0 7c 95 bb 3c 5c e3 10 bb cf 70 80 3b 8e 02 c4 3a
       0.022898428 -0.0022108173 0.003919698 0.0014954375
0001e0 7a a7 cb bc 73 98 ac bb 95 c2 b2 bb 3e fa 36 bb
       -0.024860132 -0.005267197 -0.005455325 -0.0027920152
0001f0 8c 86 ad 3c 08 69 e3 38 b9 ee d8 bb 0e 27 b0 bc
       0.021182321 0.00010843767 -0.006620255 -0.021502998
000200 3d 88 91 b9 f3 05 80 bc 39 c9 1a 3c 14 80 21 3c
       -0.0002775806 -0.015627837 0.009447389 0.009857196
000210 29 be 09 bc d1 9b 6e 3c a4 2b 56 3c c1 45 8e bc
       -0.008407154 0.014563517 0.013071928 -0.017367246
000220 66 21 16 3b 48 df 33 3c 78 99 34 3b 0c b3 ad b9
       0.002290809 0.010978527 0.0027557295 -0.00033130532
000230 51 5a b4 3c 09 f4 93 3b c3 13 35 bc 25 c6 07 3c
       0.022015722 0.0045151752 -0.011052075 0.008286987
000240 c9 fd b6 bc 25 6e 38 bb c0 4e 15 3d c5 ba ba bb
       -0.022337811 -0.0028141823 0.036452055 -0.005698534
000250 25 00 8f 3b 49 59 f3 bc 23 8f bb ba 22 5a 63 bb
       0.004364031 -0.02970566 -0.0014309626 -0.0034691175
000260 d1 a2 1a bc 8d 13 8b 3c 63 7a 6b bc 28 28 19 3c
       -0.0094382325 0.016977096 -0.014372441 0.009347953
000270 b3 05 cc 3c d6 e5 44 3b 5b f1 26 3c 91 a1 2c 3c
       0.024905061 0.003004422 0.01018938 0.010536567
000280 7d c3 b0 39 06 a4 16 3b 8f 5a 38 bb 4c 56 06 3c
       0.00033714986 0.002298595 -0.002813015 0.008199286
000290 c3 db d5 bc 73 30 1a 3c ad df a9 b9 95 b3 dc bc
       -0.026105767 0.009410965 -0.00032400843 -0.0269411
0002a0 b8 c0 f2 3b 6c af a8 3c e1 ce 45 bc ba 8a 22 ba
       0.007408228 0.02059146 -0.01207325 -0.00062004814
0002b0 5d 74 90 bc aa a7 23 3c be 69 0a 3c cb 93 5a bc
       -0.017633611 0.009988705 0.008448062 -0.013340901
0002c0 21 47 8f 3c 3e ba 6e bb d2 81 05 3a 40 aa c5 bc
       0.017489972 -0.0036426927 0.0005092892 -0.024129033
0002d0 8f c3 f3 3b 20 47 99 bb 5e a7 b2 bb f7 2c ef 3a
       0.007439084 -0.004677668 -0.0054520806 0.0018247653
0002e0 5d 37 16 bb 99 ff fd bb b4 fb eb bb fe d6 0c 3a
       -0.0022921183 -0.007751417 -0.007201636 0.00053726125
0002f0 57 9c cd ba 5e 3b b3 ba b2 b4 ab 38 37 ff 96 3b
       -0.0015686852 -0.0013674309 8.1875725e-05 0.0046080607
000300 ee 64 2f bb 17 32 d3 bb 8e 96 85 3b 67 12 08 3d
       -0.002676304 -0.00644518 0.0040767854 0.033220675
000310 80 4b 8d ba 04 25 71 3c 4d 6b 83 b9 4f ee d9 39
       -0.0010779947 0.014718298 -0.00025066212 0.0004156702
000320 fc 5a f1 bb 34 37 01 bc 8d c7 a7 3c c9 8e 9a 3c
       -0.0073655825 -0.007886697 0.020480895 0.018866913
000330 6c c0 ba bc b2 87 5d 3c 7f 50 02 3c c0 f6 01 39
       -0.022796832 0.013521122 0.007953762 0.0001239432
000340 c6 2e 6c 3b d1 47 08 bc 77 15 c8 3b d5 45 c6 3c
       0.0036038621 -0.008317904 0.0061060744 0.02420322
000350 11 52 16 3c e0 2d 18 3b 92 ec 40 3c f4 8f c9 bc
       0.00917484 0.0023220703 0.011775153 -0.024604775
000360 c0 b7 fe 3b 03 4a 2a bc f1 e0 48 3c 69 30 93 bc
       0.0077733696 -0.010393622 0.012260661 -0.01796742
000370 04 62 06 bc 4b 69 3c 3d 67 fa dc ba b5 c0 88 3c
       -0.00820208 0.045998853 -0.0016859294 0.016693452
000380 0e 02 6a 3b 5d 5c 8b bb f1 e4 38 3c 85 88 07 3b
       0.003570679 -0.004252954 0.011285053 0.0020680737
000390 59 6c 10 bb 1f c6 9c bc e4 45 e4 39 fd d3 e6 bb
       -0.0022037236 -0.01913744 0.0004353962 -0.007044314
0003a0 b3 9e 2e 3d 0e b0 20 3c 05 d4 72 bb b4 67 24 bd
       0.042631816 0.0098076 -0.0037052643 -0.04013796
0003b0 92 2c a8 bc 56 d1 dd ba d4 94 5a 3c 3e 12 34 bc
       -0.020529065 -0.0016923349 0.013341147 -0.010990677
0003c0 60 8c 0e 3c c2 3f e7 ba c3 29 6e 3c 7d 1a 56 3c
       0.00870046 -0.0017642903 0.014536324 0.013067839
0003d0 ee 0c 62 3a 60 a2 db bc 97 f2 35 bb 80 50 d4 ba
       0.00086231425 -0.026810825 -0.0027763003 -0.0016198307
0003e0 d1 09 15 3a 3f 41 24 bc f4 ff 1e bc 20 a7 70 bc
       0.00056853617 -0.0100253215 -0.009704579 -0.014688283
0003f0 94 11 2b 3a 52 46 a4 b9 fb 21 5f 3b bf 30 84 3b
       0.00065257517 -0.0003133291 0.0034047354 0.0040341313

e_conv2.bias f4 [32]
000000 2e 23 43 bd b6 cc 77 bb 3a fb 41 3d 18 4c 27 3d
       -0.04764097 -0.0037811226 0.04735873 0.040844053
000010 2b fd 7a 3b 9f 77 0e bd 06 13 52 3d 59 f4 63 bb
       0.0038297873 -0.03478205 0.051287673 -0.0034783094
000020 c2 6f 3b bd 7f 32 5b bc 74 15 d8 3c c2 34 45 bc
       -0.045760877 -0.013378738 0.026377417 -0.012036504
000030 6e 87 3b 3d 6a e7 3b bd 4d f4 07 3d 5c 72 7f 3c
       0.045783453 -0.04587499 0.033191968 0.01559123
000040 5d f3 62 3d eb c4 46 3d 07 2f 72 3d 39 08 59 3d
       0.05540787 0.04852764 0.05912688 0.052986357
000050 1a 52 44 3c a9 09 30 bd 38 b3 81 bc 36 5d 66 3d
       0.011982465 -0.042977963 -0.015832528 0.056241237
000060 56 73 64 3d 21 a4 f9 bc 02 dc cd bc d9 1e ff bc
       0.055774055 -0.03047377 -0.025129322 -0.031142639
000070 64 75 e9 bc 67 60 ce bc 9c 14 1d bd 8b 22 04 3d
       -0.028498359 -0.025192453 -0.038349733 0.032259505

e_conv3.weight f4 [32, 32, 3, 3]
000000 87 64 e3 bb 0b 48 6e 3c 0b e5 d4 3b c8 03 a6 ba
       -0.006939474 0.014543544 0.0064970306 -0.0012665922
000010 2a ae 02 3b 02 69 92 bc 7e 86 6c bb ea 37 fa ba
       0.0019940236 -0.017872337 -0.0036090906 -0.001909015
000020 05 75 88 bb c6 35 3d bb e1 9e 27 bd 4c 93 89 39
       -0.0041643404 -0.0028871163 -0.040923003 0.0002624042
000030 1a 09 4c bb 64 7d dd bb 15 fc dd bb 8b 3a 14 bc
       -0.0031133355 -0.0067593325 -0.0067744353 -0.009047161
000040 4f f2 2e bd 16 58 20 3c 0d c5 24 bc bf 8c d9 3b
       -0.042711552 0.009786626 -0.010056746 0.0066390927
000050 55 40 4d 3b b8 a6 e2 bb 93 d6 9c ba d6 7e 06 3d
       0.0031318862 -0.006916847 -0.0011965804 0.032835804
000060 01 ba b6 bc ad 99 f5 39 d8 54 fe 3c c8 fa 17 bc
       -0.02230549 0.0004684454 0.031046316 -0.0092760995
000070 e7 1b cc bb 79 cb 0e bd 50 51 8c bc dd 41 94 3c
       -0.006228912 -0.034862015 -0.017128617 0.018097812
000080 bd 0f 53 bc be b6 22 3c 2a 4b 93 bc 6c c6 a1 bc
       -0.01288217 0.009931264 -0.017980177 -0.019747935
000090 b0 ec 5d 3b f7 21 06 3c ac 80 c9 b9 be 9b 3f 3b
       0.0033863 0.008186809 -0.00038433576 0.0029237117
0000a0 86 02 8a 3a 6e aa 38 3c 33 23 0e ba 31 98 31 bc
       0.0010529316 0.011271102 -0.0005422115 -0.010839508
0000b0 eb a0 82 bc 13 f2 a3 3c 83 93 f4 3b f2 4e d0 3b
       -0.015945872 0.02001289 0.007463874 0.0063570673
0000c0 4c 31 c9 bc 08 18 2b 3d 14 a4 01 3d 7b e3 24 bc
       -0.02455964 0.041770965 0.031650618 -0.010064001
0000d0 fa 87 0f 3b 4a 6f 2c 3c 2e 01 8f bb 22 b9 95 3b
       0.0021901117 0.01052458 -0.0043641543 0.0045691887
0000e0 de 54 c2 3c 6d 9c 3c 3a 2b 14 b4 3c 2d 30 b1 bc
       0.023722108 0.000719494 0.021982273 -0.021629417
0000f0 7f 0d 0c bc e6 bd 25 bd 3f 45 27 bc f0 99 75 3c
       -0.00854814 -0.040464304 -0.010209381 0.014990315
000100 2e c8 d7 3c 73 5d a9 3b b8 a4 5e 3c bb 39 b3 bb
       0.02634057 0.0051686107 0.013589077 -0.0054695285
000110 95 83 07 3d e1 f6 2e bb ba 44 89 ba 0e f2 38 bb
       0.03308447 -0.0026697444 -0.0010472753 -0.0028220448
000120 cf e0 22 bc 92 34 b8 ba 6b b6 f1 3c 49 23 bb bc
       -0.009941294 -0.0014053753 0.029505929 -0.022843974
000130 b4 77 25 bb e4 8d 76 3b 62 f6 d5 bc 66 d8 bb ba
       -0.002524835 0.0037621194 -0.026118461 -0.001433146
000140 55 8a 9a 3c fc 55 a2 ba b2 d4 7a bc 1e fe 8d bb
       0.01886479 -0.0012385244 -0.0153095 -0.0043332716
000150 d9 0a 9c 3c ec 78 a3 ba a1 26 28 bc d4 2c 67 bc
       0.019048141 -0.0012471951 -0.010263116 -0.014109809
000160 57 91 8b bc d9 b0 d4 bb 5d 11 8c 3b 87 37 10 bd
       -0.017037077 -0.0064908084 0.004274531 -0.035209205
000170 13 e5 e6 3a 3a 2d b0 3c cc 9d c3 bc 27 73 27 3c
       0.0017615877 0.02150594 -0.023878954 0.010220326
000180 9f 18 3f bb 0d ac 62 3b c5 c3 f9 ba 94 9f ad 3a
       -0.0029158962 0.0034587414 -0.0019055536 0.001324641
000190 bc 75 15 3d d0 9b 63 bb 15 4b f0 bb f8 26 98 ba
       0.036489233 -0.0034730323 -0.007333169 -0.0011608293
0001a0 d5 00 c3 3b e4 c6 fb bc 45 55 8f 3a 2c bc 18 3d
       0.005951027 -0.030734487 0.0010935446 0.03728883
0001b0 47 62 e2 3b 5e 51 b7 bb db 1f a8 bb 4e f5 54 bc
       0.006908688 -0.0055944165 -0.0051307506 -0.012997938
0001c0 66 c9 c0 bc 2a 1c a2 3b 0b b6 b2 bb 40 78 6f bc
       -0.023533534 0.004947205 -0.00545383 -0.014616072
0001d0 e2 45 99 bc 3f 94 a7 3a 7c 35 e4 bb 89 65 c7 3b
       -0.01871008 0.001278527 -0.0069643836 0.006085102
0001e0 fb 97 a2 ba 91 6b b1 3a 12 88 97 bc 8d a8 bf 3b
       -0.0012404913 0.0013536086 -0.0184975 0.0058489502
0001f0 81 75 7a 3b 77 54 a7 bb b1 67 c7 3b 6d 18 10 bd
       0.003821701 -0.0051065045 0.006085359 -0.035179544
000200 ca 33 b1 3c da c4 81 3c b8 71 16 3d 19 5a ce 3c
       0.02163114 0.015840936 0.036729544 0.025189446
000210 e9 8a e9 bc 44 f3 81 bc b9 6f b8 3b 59 4b 37 3c
       -0.02850862 -0.015863068 0.0056285528 0.011187398
000220 ad c8 75 3c db 91 15 3b 58 16 8c 3b 84 89 0e 3d
       0.015001458 0.0022822532 0.0042751245 0.034799114
000230 e6 6e 94 3a 9e 59 34 bc 95 a0 69 bc ef 0b e6 3b
       0.0011324554 -0.0110076945 -0.014259477 0.0070204656
000240 36 96 66 3b a1 35 72 bc e7 ff b2 bc 1a 5d fc bc
       0.0035184748 -0.014783294 -0.02185054 -0.030806113
000250 51 12 97 bc de 33 d2 bb 31 ff f9 3c f3 71 32 3a
       -0.018441351 -0.0064148745 0.030517193 0.0006807141
000260 23 76 27 bb be 03 c3 bc d4 44 d0 bc 20 37 ca 3b
       -0.0025552593 -0.023805495 -0.025423445 0.006171122
000270 1c 19 2f 3c a8 e2 f1 ba c1 87 44 bc 92 66 e7 bb
       0.010687139 -0.001845439 -0.011995257 -0.007061788
000280 36 c6 c3 3c 42 59 8c bc 00 de 8a bc 2c d6 a7 bb
       0.023898225 -0.017132405 -0.016951561 -0.005121967
000290 41 5f 23 bb 96 a3 38 3c 0a 8a 9d 3c f7 4a 6f 3c
       -0.0024928602 0.011269471 0.019230861 0.014605275
0002a0 43 02 98 3c ae 36 80 3b dd 2e 72 bc 20 4b c7 3c
       0.018555766 0.0039127683 -0.014781681 0.024327815
0002b0 18 58 91 bb c0 4d 30 bb c2 c1 60 3c 3e 73 86 3c
       -0.0044355504 -0.0026901811 0.01371807 0.016412374
0002c0 1e 37 3e bc 0f 51 e6 ba 79 33 45 bc 10 2b bd bc
       -0.011609821 -0.0017571765 -0.012036198 -0.023091823
0002d0 bc 92 d6 3c 66 6e c8 ba 4b 95 35 3c 5c e1 87 bb
       0.026193015 -0.001529169 0.0110829575 -0.004146738
0002e0 49 4c 93 bc 03 3a 32 bc 40 0a 89 3c 6d c3 85 ba
       -0.017980712 -0.010878089 0.01672852 -0.0010205336
0002f0 3b 71 ae 39 a4 29 c7 3b 9e a1 07 bc 06 e9 ef bc
       0.0003327223 0.006077962 -0.008278279 -0.029285919
000300 24 5a 71 3b 53 bc d3 bc da 32 1e 3c 73 ab 24 3b
       0.003682741 -0.025846636 0.009655679 0.0025126606
000310 b2 9f 02 3d 7b 2c aa 3c 71 f0 31 3a f0 40 84 3c
       0.03189058 0.020773163 0.0006787843 0.016144246
000320 ba 8b 14 ba c7 23 44 3b ed 13 c0 bb fe 88 46 3c
       -0.0005666573 0.0029928552 -0.0058617503 0.012117622
000330 96 6e fd bb 2d 81 bb 3c d7 b8 c4 3b a6 33 27 bb
       -0.00773413 0.022888744 0.00600348 -0.0025512963
000340 bf 29 00 bb 87 d8 49 3c 61 63 2f 3c ea 96 fb bc
       -0.0019556133 0.012319691 0.010704846 -0.03071161
000350 de db 0b 3d 50 60 03 3c 3d 6a 87 3c 31 9e de bb
       0.03414523 0.008018568 0.01653015 -0.00679376
000360 a9 85 90 bc dd 4a 20 38 97 36 09 3c c5 cc 90 bb
       -0.01764186 3.8216695e-05 0.008374832 -0.0044189417
000370 16 06 34 3c e5 e5 86 bc 38 46 b9 3b 62 05 3a bc
       0.010987779 -0.016467044 0.0056541227 -0.011353822
000380 25 68 01 3d 66 e1 57 3b 8c 3a af bc 29 43 f0 3b
       0.03159346 0.0032940744 -0.021390222 0.007332225
000390 2d f5 a1 bc 9d 4f d2 3c b3 c7 0f 3d b0 69 ad 3c
       -0.01977023 0.025672728 0.035102557 0.02116856
0003a0 e3 dd 24 3c b0 f1 c9 bc 5b f6 8a 3c ef 8c d5 bb
       0.010062668 -0.024651378 0.016963175 -0.0065170447
0003b0 96 8c e8 3c cb 37 d1 bc 68 9d f4 bc 09 24 7c 3c
       0.02838735 -0.0255393 -0.029860213 0.015389451
0003c0 3a b7 b1 bc 37 05 47 3d 31 b0 6c bc f4 7f 0b 3d
       -0.021693815 0.048588958 -0.014446304 0.034057572
0003d0 a6 a6 06 bc aa 11 c1 ba 18 d7 b4 bc 1a 05 2a 39
       -0.008218443 -0.0014729996 -0.022075221 0.00016214364
0003e0 0e 61 02 bb c7 35 8c ba a5 ee 00 3b 8d 3c c0 bc
       -0.0019894275 -0.0010697179 0.0019673493 -0.023466373
0003f0 7b 66 af 38 6b 45 d6 ba 70 e8 19 bb 6e 34 c2 3b
       8.363739e-05 -0.0016347592 -0.002348449 0.0059266603

e_conv3.bias f4 [32]
000000 a7 7f 07 3b 94 b6 7d 3d d2 20 85 bc 73 8a 48 3b
       0.0020675452 0.0619417 -0.016251002 0.00306001
000010 66 c5 70 3d c8 88 b3 3c 2b 15 2f 3d d9 7d 68 3d
       0.058782004 0.021915808 0.042744797 0.056760643
000020 21 18 8a 3d e8 a9 82 3d 21 7a 80 3d 1e 95 76 ba
       0.067428835 0.06380063 0.06273294 -0.00094063755
000030 d5 77 e5 3c 2a cd c5 bc a0 c5 47 3c 48 33 05 b9
       0.028011242 -0.024145681 0.012193114 -0.00012702972
000040 8d 54 44 3d 3d 1f 12 bd dd 44 80 3d 25 82 a3 3b
       0.047932196 -0.035674322 0.06263135 0.0049898797
000050 32 ca 0b 3d 2f 97 8b 3d af 7f 40 bd f0 38 5e 3d
       0.034128375 0.06815945 -0.04699677 0.05425352
000060 cd 2e 15 bd 54 6a 2c 3d 57 6c a2 3c 26 7f 18 bd
       -0.036421586 0.04209359 0.019827051 -0.037230633
000070 d7 ff 2b 3d 29 e6 5c 3d f3 97 bd bc 03 83 3c bc
       0.041992035 0.053930435 -0.023143744 -0.011505845

e_conv4.weight f4 [32, 32, 3, 3]
000000 be 5e 26 bb eb 7a a8 3c 49 f4 d0 3b ae c5 59 bb
       -0.002538606 0.020566424 0.0063767773 -0.0033229399
000010 47 ed b9 38 54 fe 89 3c 09 52 aa bc ad 94 14 bb
       8.865684e-05 0.016844906 -0.02079107 -0.0022671625
000020 1a 9a a5 3c d6 8b 87 bc 75 8f a7 3c 18 d0 2f bc
       0.020215083 -0.016546171 0.020454148 -0.010730766
000030 12 b0 84 bc 13 a1 b6 3b 49 77 a7 bb 65 6a d2 3c
       -0.016197238 0.0055734008 -0.0051106554 0.025685498
000040 e2 e2 38 3b 1d f2 1a bb a2 0c 29 bd 50 7c 11 3c
       0.0028211405 -0.0023642846 -0.041271813 0.008879736
000050 26 14 d3 3c 99 9b 1c bb 27 ae 8a 3c 5e cb d9 bc
       0.025766443 -0.0023896454 0.016928745 -0.02658623
000060 0a 52 03 bc 0b e5 ea bc 25 49 60 3c 83 ba 5e bc
       -0.008015165 -0.02867367 0.013689314 -0.013594273
000070 01 7c 09 bb 3b 54 36 bc e7 29 8f 3c 13 68 63 bc
       -0.0020978453 -0.011128481 0.017476035 -0.013879794
000080 61 2c dd 3b 17 7b 54 bb de 8b f8 3b d1 3a 87 3c
       0.006749675 -0.0032422 0.007585033 0.016507538
000090 c2 b1 d1 3c 5e 07 2d 3c 50 95 2c 3d c1 b0 1c 3c
       0.025597457 0.0105608385 0.042134583 0.009563626
0000a0 18 c4 db bb 3e de 49 3d 0c e8 b7 bc 5b 82 95 bb
       -0.006706726 0.049284212 -0.022449516 -0.0045626587
0000b0 aa 1d 05 bd c7 a2 8b bc 9c 36 bf 3a 1a ce 98 3b
       -0.032498993 -0.017045392 0.0014588418 0.004663241
0000c0 2a 2e 89 bb d6 6c ac bb f7 3c 61 bc 24 58 8c bc
       -0.0041864114 -0.0052619977 -0.013747445 -0.017131872
0000d0 9b 43 82 3c 42 d8 f2 3b 91 5f a2 3c 06 f9 86 3c
       0.015901377 0.007411034 0.01982096 0.016476166
0000e0 bf b1 bc 3c 12 9b 8a bb 21 36 10 3b da f2 f9 bb
       0.023033975 -0.0042299116 0.002200492 -0.007627827
0000f0 d8 a3 2b bc 39 e1 58 bc c9 10 0c 3d 67 3a e6 3a
       -0.010476075 -0.013237291 0.034195695 0.0017565013
000100 46 98 a6 3c d5 c5 6c 3c 04 48 60 bc aa f0 45 bc
       0.020336282 0.014451464 -0.013689045 -0.012081305
000110 08 c9 36 bb ea 64 6d 3b 5a c5 9e 3c a9 ff 21 3d
       -0.002789082 0.003622348 0.019381214 0.039550457
000120 c2 85 fe ba 27 4a 56 38 5c 67 19 3c fb 47 1c 3b
       -0.0019418525 5.1090636e-05 0.009363022 0.0023846615
000130 4b 9b e0 3b cd 7a ec 3c 54 f5 8a 3c 1a f2 89 bc
       0.00685445 0.02886715 0.016962685 -0.016839076
000140 8d 00 2f 3d 1b 84 0a bc e4 84 8c bc 3b 18 06 ba
       0.042725135 -0.008454348 -0.017153211 -0.0005115305
000150 79 f1 1c bb de 4a d8 3b 4a cd 9b bb 6d 28 f9 3a
       -0.002394764 0.0066007217 -0.004754697 0.001900924
000160 17 3b 82 3b d2 da c6 3c ec 7f 96 bb a1 71 49 bc
       0.003974329 0.024274264 -0.004592886 -0.012295158
000170 87 73 22 3b d2 b6 85 bc 67 f1 03 3a e9 47 2a 3a
       0.0024788098 -0.016322527 0.0005033225 0.0006495701
000180 80 fe f5 3b 2b c9 96 3c bf 4f f3 3b 9a 4d 2e 3d
       0.0075071454 0.018406471 0.007425278 0.042554475
000190 b5 89 2d bb 8f 1e 9b 3c 50 a3 33 bc 6b 0e a1 bc
       -0.0026479785 0.01893547 -0.01096423 -0.019660195
0001a0 93 8b 83 3b 34 08 ea ba 66 9e 6a bc e3 dc 7c 3b
       0.0040144413 -0.0017855228 -0.014319992 0.0038583807
0001b0 4b 08 72 3c a0 95 a3 3c ca e1 34 3c 8b 2b c4 3b
       0.014772485 0.019968808 0.01104016 0.005986636
0001c0 32 1f 8c 3c c8 ff 2b bc 99 1a 2b 3d 17 a2 16 3d
       0.017104719 -0.010497995 0.041773412 0.036775675
0001d0 13 1b 52 bb b9 ab 8d 3c 2c 69 a9 3c 1e 86 bc 3b
       -0.0032059595 0.017293798 0.020680033 0.0057532927
0001e0 4e 98 06 3c 1f 37 85 bc 2c 19 fd 3a 7e 09 e5 bc
       0.008215023 -0.016261635 0.001930987 -0.027958628
0001f0 81 29 37 bb de 07 70 bb 2e 41 6f bc d2 77 90 bc
       -0.0027948322 -0.0036625783 -0.014602942 -0.01763526
000200 e1 66 ac 3c 16 a9 59 bc 38 b0 fc bc 27 ef 2e bd
       0.02104515 -0.013284942 -0.030845746 -0.042708542
000210 fe c2 93 3b a5 89 10 bb 23 d4 ce 3c a1 e3 e1 3b
       0.004509329 -0.0022054699 0.025247639 0.0068935906
000220 24 43 94 bc 9b 67 45 3c 2c 2f 0e bc 4e 25 78 3c
       -0.018098421 0.012048627 -0.008678239 0.015145613
000230 58 fe a6 3b e9 cb b9 bc 18 6d 1d 3d dc 9d f3 bb
       0.005096238 -0.02268024 0.038434118 -0.00743459
000240 90 2b 2d bd e7 6c 01 3c ea f0 2d 3c 18 4c d2 3b
       -0.042277873 0.0078994995 0.01061652 0.0064177625
000250 65 e3 48 bc 8a b6 fb bc af 61 94 bc 0c bf bc bb
       -0.012261246 -0.03072669 -0.018112985 -0.0057600792
000260 32 a2 be b9 8e 97 c4 bc cb 8d 84 3c d3 c2 04 3b
       -0.0003636047 -0.023998048 0.016180893 0.0020257726
000270 8a c2 03 bc 4c 0f 7a 3a 06 0b af 3b 3e 6e 17 3b
       -0.008041987 0.00095390226 0.0053418903 0.002310648
000280 eb c0 15 3c e2 4e 00 3d b8 11 1d bb 1a 03 1f bd
       0.0091402335 0.03132523 -0.002396686 -0.038821317
000290 ae 07 92 bc 1a 6b d9 bc dc 67 ed 3b 0c fd 73 3d
       -0.017825928 -0.026540328 0.007245047 0.059567496
0002a0 93 18 0e bc 04 52 ac bb db 32 3c 3c 5f 59 70 bb
       -0.008672851 -0.0052588005 0.011486734 -0.0036674363
0002b0 e8 ee 25 3c b1 80 45 bc bd 04 91 bb a0 c3 ef 3b
       0.0101277605 -0.012054608 -0.0044256137 0.0073170215
0002c0 81 2e da 3a 4e 40 ec bc 8c f8 d9 bb 90 9b d8 3b
       0.0016645939 -0.028839257 -0.0066519435 0.0066103414
0002d0 23 89 94 bc 22 c6 62 3d 6a 82 0f 3c 20 27 6f 3c
       -0.018131798 0.055364735 0.0087591205 0.0145967305
0002e0 cd b1 bf bb 44 9d 74 3c e0 e9 2c 3d e8 b7 e6 3c
       -0.005850053 0.014930073 0.042215228 0.028163865
0002f0 70 0a 08 bd 05 0c 34 bc 82 70 f8 3a eb 1b 40 3b
       -0.03321308 -0.010989194 0.0018954428 0.0029313515
000300 ee 3e 9f 3c 93 70 50 3c fc 45 15 3d 44 43 21 3c
       0.019439187 0.012722152 0.036443695 0.0098426975
000310 1e f5 91 3c 5d bf 36 bb 00 b7 12 bc 37 57 a1 3a
       0.017817076 -0.0027885057 -0.008954763 0.0012309317
000320 2f c5 62 bb 24 51 39 bc 8c fe 58 3a f1 9a 47 bb
       -0.0034602394 -0.011310849 0.00082776765 -0.0030457343
000330 49 1e 98 bc 44 44 76 ba b3 74 1e 3a c9 d5 e3 bc
       -0.018569129 -0.00093943276 0.0006044611 -0.027811902
000340 f6 cb e0 bb cf 17 8d 3c 22 79 7f bc 1b 47 ef bb
       -0.0068602515 0.017223267 -0.015592845 -0.0073021776
000350 aa 49 14 bc a2 5b ff bc 1a f1 de 3b a3 d4 c2 3c
       -0.009050766 -0.031171624 0.006803644 0.023783034
000360 79 a7 6a bb 69 cd ae 3b 61 b0 fc bb 96 99 e2 bc
       -0.0035805388 0.0053345454 -0.0077114557 -0.027661126
000370 7c 40 b0 bc 74 b0 03 bc 15 14 b9 ba d3 fd 9e 3c
       -0.021515124 -0.008037675 -0.0014120365 0.019408142
000380 fc 01 b9 3b 29 f8 7b 3c af 16 72 39 89 0c 2d 3c
       0.0056459885 0.01537899 0.00023087369 0.010562071
000390 e4 2a 50 3b 6e 63 30 3d 7d df 09 3d 4a c3 38 3c
       0.0031763846 0.043063574 0.0336604 0.011277029
0003a0 ea fa d4 3b ce 4f ac 3b 52 62 01 3a ae 0d 26 3c
       0.006499638 0.005258537 0.00049356103 0.010135097
0003b0 34 ca b0 3c 1c fa f9 bc 6a 1d f3 3b 20 09 19 3d
       0.021580793 -0.03051477 0.007419278 0.037362218
0003c0 ac 44 d1 bc 73 2d 38 3c 31 03 dc 3c f3 7b a2 bc
       -0.02554544 0.011241305 0.02685699 -0.019834494
0003d0 fe a2 dd 3c 13 a6 89 bb 92 26 d2 b9 d8 bb 2c b9
       0.02705526 -0.004200706 -0.00040083058 -0.00016473175
0003e0 70 7d e1 bc 41 00 2c 3c ff 5a d0 3b 13 7b 62 3c
       -0.027525634 0.010498107 0.006358504 0.0138232885
0003f0 78 e8 16 3c a8 3b a0 3c 60 17 bb bb 5f 10 e0 bc
       0.009210698 0.019559696 -0.0057095736 -0.027351556

e_conv4.bias f4 [32]
000000 47 33 c2 bc f9 e5 0f bc 1a 35 1f 3d df 56 00 3d
       -0.023706092 -0.008782857 0.038869 0.031332847
000010 28 95 1f bd ec 46 ba bc 96 c5 67 bd fa 94 86 bc
       -0.038960606 -0.022738896 -0.056584917 -0.01642846
000020 a6 b1 cd 3c ba 32 56 bc ce 21 3c 3c 4f ba cf 3b
       0.025109123 -0.013073618 0.011482669 0.0063393484
000030 55 18 6f bb a0 59 89 3c 11 72 03 bd 39 f8 03 bd
       -0.003648301 0.01676637 -0.032091204 -0.032219145
000040 1c 49 0a 3d 7b 4f 84 3c a9 ee 72 3d 0d 39 e3 bc
       0.03376113 0.01615118 0.059309635 -0.027737165
000050 73 41 01 bd a0 0d 1e bd 43 1e a1 bc e4 df 2e bc
       -0.031556558 -0.038587213 -0.01966775 -0.010673497
000060 9c 51 b7 3c 46 f9 0c bc bf 7f 73 bc 35 8d d0 3c
       0.022377782 -0.008604353 -0.014862 0.025457958
000070 2a 9a a9 3c fe 06 47 bd 20 ef c4 3c 47 37 69 3d
       0.020703394 -0.048590653 0.024039805 0.056937482

e_conv5.weight f4 [32, 64, 3, 3]
000000 69 56 0b 3c 89 2e 1e ba 95 86 36 3c ac f0 8c bc
       0.0085044885 -0.0006034156 0.011140485 -0.017204605
000010 8d 31 72 3c cf 94 46 3c b1 7b d4 ba 5d fc ee 3c
       0.014782322 0.01212044 -0.0016211179 0.02917307
000020 96 94 98 bc 51 2d 2d bd 30 98 9c 3a 82 51 3d bd
       -0.018625539 -0.042279545 0.0011947211 -0.04622031
000030 ac da 5d bb 11 47 31 3c 17 bb db bc d6 30 f0 3b
       -0.0033852262 0.010820166 -0.02682261 0.0073300404
000040 c2 9d 31 3c c9 f1 2f bc a3 54 a2 bb 28 fd c1 bc
       0.010840835 -0.010738798 -0.004953937 -0.023680285
000050 45 67 95 bc d8 71 06 3b 98 19 ac bb 13 63 59 3c
       -0.01823772 0.0020514634 -0.0052520745 0.01326825
000060 a3 3b fb bc f6 55 72 bc a0 f8 10 bc 15 dc 86 bb
       -0.030668085 -0.0147910025 -0.008848339 -0.0041155913
000070 60 a7 92 bb b3 75 98 bb ba 3c 11 ba e7 a7 65 39
       -0.004475519 -0.0046527027 -0.000554036 0.0002190169
000080 7f 4d 30 3b 7b 20 37 3c e8 f7 9e bb d3 a1 24 3d
       0.002690166 0.011177178 -0.00485133 0.04019339
000090 96 e5 97 3b 40 11 ae 37 fb c6 68 3b 1c 5e 00 3d
       0.004635523 2.0750449e-05 0.0035518992 0.03133975
0000a0 13 fa 45 bc 5b 3c 6d 3a 80 5f 33 bb c7 34 86 3c
       -0.012083548 0.0009049826 -0.0027370155 0.016382588
0000b0 66 11 33 3b 2a d5 74 3a 8a 11 bf 3c fd 22 74 3c
       0.0027323603 0.0009339625 0.023323793 0.01490092
0000c0 fb f4 94 bc 47 a5 61 3c 5f 56 da bb 6e b8 31 bb
       -0.018183222 0.013772315 -0.0066631283 -0.0027117985
0000d0 e7 7c 2c bb 67 c6 aa 3c 67 2b 14 3c d1 9a 0c 3c
       -0.0026319565 0.020846559 0.009043551 0.008581833
0000e0 c7 64 72 3c 28 42 9a b7 79 bc 03 bc 5f a4 af bb
       0.014794535 -1.8389037e-05 -0.008040541 -0.0053601707
0000f0 99 94 e6 39 b5 99 dd 3b 88 8a a4 bb 79 58 84 bc
       0.00043979732 0.006762708 -0.005021397 -0.016155468
000100 24 42 8e 3c f1 62 1e 3d 7e fc cd 3b a6 9d d8 3a
       0.017365523 0.038668577 0.006286203 0.0016526475
000110 9a e1 44 bc e9 88 7f bb 73 1f 5f bc a5 36 c1 3c
       -0.012016678 -0.0038991517 -0.013618338 0.023585627
000120 32 79 3d 3c 69 e9 28 3c 84 99 7b bc ae 3f 86 bc
       0.01156454 0.010309556 -0.015356425 -0.016387787
000130 51 8d ab bc 50 98 d6 3c 7a 57 74 3c e6 47 d5 3b
       -0.020941408 0.026195675 0.014913434 0.006508815
000140 80 fa 91 3c 91 ee 86 bc 3d a1 10 bd e6 0f 43 bc
       0.017819643 -0.01647118 -0.03531002 -0.011905646
000150 84 7f 61 ba e8 23 7b 3c 52 86 0e bc 39 95 96 3b
       -0.000860207 0.015328385 -0.008699017 0.0045954254
000160 da 31 39 3b a8 1b b5 3c 27 49 1f 3b 2d cc 18 3b
       0.0028258474 0.022107914 0.0024305077 0.0023315058
000170 37 be ff 3b 47 3f 9c ba 2e fa 54 3b b5 2b 1d 3c
       0.007804658 -0.0011920714 0.0032497752 0.00959294
000180 11 ef b5 bb 5a 17 4e 39 83 55 40 3c 3b 59 66 bc
       -0.0055521806 0.0001965439 0.011739138 -0.01405936
000190 f4 1d 31 3a 12 c4 1b 3c e3 47 14 bb 7b cd bc 3c
       0.00067564775 0.009507196 -0.0022625856 0.0230472
0001a0 48 90 44 b9 3d 71 24 bc dd e4 3e bb 87 b2 ff bc
       -0.00018745766 -0.010036764 -0.0029128112 -0.031213058
0001b0 fc 4c 18 3b 10 c4 8a bc b2 aa 3e bb 08 bf 4d 3c
       0.0023239246 -0.016939193 -0.0029093442 0.012557752
0001c0 b7 f6 9c bb 55 23 f8 3b d8 16 92 bb 9d 5e b5 bc
       -0.004790153 0.0075725713 -0.0044582896 -0.022139842
0001d0 0b c1 cb 3c e2 ac 65 bb 4d e6 33 ba 45 0b c2 3c
       0.024872323 -0.0035045673 -0.00068626256 0.023687014
0001e0 f0 c4 c6 bb ea a6 e3 3b 74 64 f2 3b 65 96 37 bc
       -0.0060659572 0.006947388 0.007397229 -0.01120529
0001f0 2e 9d fb 3b e6 ca 8b bc 88 4d 4e b8 6b 44 de 3b
       0.0076786494 -0.017064523 -4.9186434e-05 0.0067830584
000200 b8 35 0e bd d7 9e 0b bc 03 a7 f0 3a b2 67 48 bc
       -0.0347192 -0.008521757 0.001836032 -0.012231754
000210 0a e0 f7 3c a0 cc e1 3c 2e bb 02 bb 6c ae 15 3b
       0.030258197 0.027563393 -0.0019947994 0.002283956
000220 f1 63 2c 3b fa 45 54 3c 6f 74 7a bc 79 df 62 bb
       0.0026304687 0.012956137 -0.015286549 -0.0034618063
000230 10 b9 3f 3c 65 57 fa 3b 16 42 f3 bb ad b8 af 3c
       0.011701837 0.007639813 -0.0074236495 0.021450365
000240 c0 b9 4f bc a0 75 e7 bc d3 34 05 3d f5 77 3d ba
       -0.012678564 -0.02825433 0.03252108 -0.0007227653
000250 be 51 b7 bb 99 95 ae 3b f9 d1 0a bc 14 d6 73 3c
       -0.005594461 0.005327892 -0.008472913 0.014882583
000260 54 c3 89 38 12 65 a2 ba e3 05 7b 3b a7 eb 92 bb
       6.569052e-05 -0.001238974 0.003830307 -0.0044836584
000270 23 5c a7 b8 15 11 ee 3c 78 da d3 39 0b cc a0 bb
       -7.980342e-05 0.02906088 0.00040407828 -0.0049071363
000280 b1 1b 31 3c 11 96 09 3d bb f5 67 bc 49 d8 10 bb
       0.010809825 0.03359038 -0.014157708 -0.0022101572
000290 65 00 01 3d 65 0d af 3c 59 ff a8 bb 65 f9 cc bb
       0.031494517 0.021368692 -0.005157393 -0.006255316
0002a0 0f 52 e2 3a ab f7 37 bd 16 46 4d 3b 1b b3 32 bb
       0.0017266887 -0.04491393 0.0031322292 -0.00272674
0002b0 64 76 07 3c 06 3c 07 bc ef 56 e4 bb 8a 1d 07 bb
       0.008267973 -0.008254057 -0.006968371 -0.0020616972
0002c0 27 a1 ff 3b 7c 8d 84 3b a8 ff c7 3b 54 0d e1 3b
       0.0078011933 0.0040451866 0.0061034746 0.006868044
0002d0 a4 e1 05 bc 9d 94 5a 3c d4 e4 20 3b bf ce 97 3b
       -0.008171473 0.013341096 0.0024550455 0.0046328004
0002e0 ec bd 06 b9 79 e3 b1 3b 26 3e ef 39 45 f1 29 bb
       -0.00012849987 0.005428728 0.00045631937 -0.0025931161
0002f0 f8 0a 57 3b e3 dc a8 ba 67 fd db bb 17 c4 26 bc
       0.0032812934 -0.0012883212 -0.0067135575 -0.010178587
000300 ba 16 b5 3c bb 3e a6 bc 54 03 c3 ba 4e 5d 17 bc
       0.022105563 -0.020293584 -0.0014878311 -0.009238554
000310 74 75 48 3a fd 53 0c bc 43 b4 3e 3c e6 4d 8b 3b
       0.00076468964 -0.008564946 0.011639657 0.0042512296
000320 e1 af 84 bb 31 10 14 bd e7 37 5a bc 84 06 ce bc
       -0.0040492867 -0.036148254 -0.013318992 -0.025149591
000330 8d 29 ab 3c 17 d0 1c 3c 39 9b dd 3b 2a e5 5f 3c
       0.020893836 0.009571097 0.0067628887 0.013665477
000340 9c 6c b1 ba 5f 67 06 bd 45 ad f8 3c e9 aa 2b bc
       -0.0013536396 -0.032813426 0.030356059 -0.01047776
000350 6d cc 6d 3b 46 ba 02 bc 37 d6 b1 bb fe 34 87 3a
       0.0036285177 -0.007978981 -0.0054271477 0.0010315476
000360 49 cb 13 bc d7 2a 72 38 b9 62 9c bb e1 a4 64 ba
       -0.009020635 5.7737194e-05 -0.004772511 -0.00087220786
000370 81 9d 8c 3a f8 8a b1 3c 43 48 c4 ba 92 c3 04 bc
       0.0010728092 0.02167271 -0.0014975149 -0.008103268
000380 05 29 a3 bc 5b 19 68 3c 4c 66 08 bb 49 17 d4 3b
       -0.01991702 0.014166201 -0.0020812927 0.0064725024
000390 5b b0 1a 3d 21 1c 26 3c e1 12 0f bb d8 f5 f5 bb
       0.037765842 0.010138542 -0.002183132 -0.0075061135
0003a0 d6 09 74 bc 0b 0d ac bc 4d 05 0e bc 83 94 54 3a
       -0.014894923 -0.021002313 -0.008668256 0.0008109288
0003b0 16 dd 33 bb 2b ed c8 3c 47 e9 54 3c 61 ec c5 ba
       -0.002744501 0.024527153 0.012995071 -0.0015100354
0003c0 0a 76 eb b9 79 e2 f2 bc 36 b0 34 3a d4 b0 13 3c
       -0.0004491064 -0.029649006 0.00068927126 0.009014327
0003d0 a4 77 89 ba 47 fa b7 bc cb df 5a ba 23 ad e9 3c
       -0.0010487926 -0.022458209 -0.0008349388 0.02852494
0003e0 24 b7 90 3c e3 1b af bc 5e 2a 0d 3c 7f d3 8b bb
       0.017665453 -0.021375602 0.008616058 -0.0042671557
0003f0 cd fb 68 bc 61 33 4e 3b 66 91 4d bc 20 e3 d5 bb
       -0.01422019 0.003146373 -0.012546873 -0.0065273196

e_conv5.bias f4 [32]
000000 37 15 c6 bc 01 27 06 bd c3 92 b3 3c d4 61 0b 3d
       -0.024180038 -0.03275204 0.021920567 0.034028843
000010 17 22 f1 bc e1 71 f4 bc ca 80 33 3d 60 34 89 3a
       -0.0294352 -0.029839458 0.043823995 0.001046788
000020 c0 86 87 bc 2f 29 78 bc fa 6f 94 bc fd ca 87 3b
       -0.016543746 -0.015146538 -0.0181198 0.004144071
000030 e8 c4 4a bc 90 d8 b4 bc f2 0a 2f 3d b7 14 8a 3c
       -0.012376048 -0.022075921 0.042735048 0.01685558
000040 ba 23 a1 3c 12 fd 98 bc e9 22 1d 3d 08 87 d5 37
       0.019670356 -0.01867536 0.03836337 2.5454458e-05
000050 8e b9 25 3c 72 91 22 3d 81 d0 13 bd 15 ef 13 3b
       0.0101150405 0.03968949 -0.036087517 0.0022572924
000060 80 3f ff 3b 58 90 6f 3a 67 a7 c7 bb 36 cb b6 bc
       0.007789552 0.00091386354 -0.006092954 -0.022313695
000070 15 c3 2d 3d c2 10 fd 3b 51 5a 10 3d 46 6a fe 3c
       0.042422373 0.007722945 0.035242382 0.031056534

e_conv6.weight f4 [32, 64, 3, 3]
000000 ba 94 72 bc 55 b5 04 bd 1d f1 5c ba c6 ee 21 3d
       -0.014805967 -0.032399494 -0.00084282627 0.039534353
000010 6b e1 cc bc b4 3f a8 3c e3 eb 47 bc 61 63 1b b9
       -0.025009831 0.020538189 -0.012202236 -0.00014818973
000020 42 21 c4 bc ab 17 68 3c 14 aa 03 bd 7d d7 b8 3b
       -0.02394164 0.014165799 -0.03214462 0.0056409226
000030 63 5e 14 bc d9 c6 7f 3a 9f 3e 92 3a 18 3b a7 bb
       -0.009055707 0.00097571086 0.0011157579 -0.00510348
000040 14 22 64 3c 89 f6 98 bc f6 e8 f8 3c 7a 81 63 3d
       0.0139241405 -0.018672245 0.030384522 0.0555434
000050 ae ec f7 ba 7d f2 dc 3c 25 e8 7d bc d0 d9 e7 bc
       -0.001891514 0.026971096 -0.015497242 -0.028302103
000060 e6 45 89 3c 93 cd 62 3c 42 dd bc bb 85 9a 7e 3c
       0.016756963 0.013842958 -0.0057636807 0.01553977
000070 2c df 65 3c 3e 0f a4 39 ad e0 38 3d 5b a2 1e bb
       0.014030259 0.00031291874 0.045136143 -0.0024205658
000080 20 d0 6a bb 51 6b d1 3c 03 4a ed 3c a3 89 15 bb
       -0.0035829619 0.025563868 0.028965956 -0.0022817634
000090 01 61 81 3c 92 b3 26 bc bc 05 75 3b 4b a3 9d 3d
       0.015793325 -0.010174649 0.003738745 0.07697161
0000a0 39 cb e3 3b ec 86 c6 3c 66 5e 46 bc b6 c5 28 3b
       0.0069517163 0.024234258 -0.012107467 0.002575261
0000b0 6f 6c 2e bd 85 0f b6 3c b3 17 d4 bc d7 22 19 3c
       -0.04258388 0.022224197 -0.025890207 0.009346685
0000c0 d8 da dc bb 29 de 62 3c af cf db 3b 8d cc e3 3b
       -0.0067399554 0.013846912 0.0067081074 0.0069518746
0000d0 5e 85 4d 3c 94 bf 19 bd 7a 4a 45 3c 60 15 cd 3b
       0.012544004 -0.03753622 0.012041682 0.0062586516
0000e0 0b 45 96 3c 5f bf bb bb 70 ed 64 bc 0f 4a ca bb
       0.01834347 -0.0057296003 -0.013972625 -0.0061733793
0000f0 c4 2b 83 3c b8 0c 1d 3d 8a e0 60 bc 1c 75 91 3c
       0.01601208 0.038342208 -0.013725409 0.017756037
000100 6a 38 47 bc 14 89 cd 3c e5 8c 70 bb a0 21 9a bb
       -0.012159446 0.025089778 -0.0036705073 -0.0047037154
000110 6d 03 8f 3c ef 99 5b bc 7c 6f 53 bb 95 4c 03 ba
       0.017457688 -0.0134034 -0.0032262495 -0.0005008665
000120 46 6c c6 bc 4e 4c 04 3c c1 fd af b9 5b 04 04 3c
       -0.02422155 0.008074833 -0.00033567662 0.008057679
000130 ff 2d 1a bd b7 b5 3b bc 75 8c 2a bd 8a 2e d7 bc
       -0.03764152 -0.011456898 -0.041637857 -0.026267309
000140 fb 5f ab 3c cb 8a 38 3c be de 00 3d b5 1d b8 3a
       0.02091979 0.01126356 0.031462424 0.0014046939
000150 1a 30 7d 3b a5 8c 9f ba 7a c7 e1 bb e7 00 b7 bc
       0.0038633407 -0.0012172653 -0.0068902345 -0.022339297
000160 02 fd 69 3c c4 ba 2c bc b8 cc 09 3c c0 87 f4 3c
       0.014281513 -0.010542575 0.008410625 0.029849887
000170 0c 5a 92 3c 4d c9 8a 3c 78 c4 69 3c 02 ab a6 ba
       0.017865203 0.01694169 0.014268033 -0.0012715759
000180 d1 ba 2c 3d c1 64 a9 3c ae 18 bd 3c 11 2b 95 3b
       0.04217035 0.020677926 0.023083057 0.004552253
000190 d5 0a ec 3c 6a 53 47 bd 28 c5 be 3b da 85 1e bc
       0.028813759 -0.048663534 0.0058218427 -0.009675467
0001a0 e7 64 b2 bc e3 01 c9 bc b3 5e a7 bb ca ce 35 bb
       -0.02177663 -0.024537032 -0.0051077246 -0.0027741664
0001b0 3a 55 ec 3c 82 23 01 3d 46 2c ca bc 59 ee 14 3c
       0.028849233 0.031528004 -0.024679314 0.00909003
0001c0 39 b5 85 bc 27 2e bc 3c d4 e5 70 bc b2 4f 3a bc
       -0.016321765 0.022971226 -0.014703233 -0.01137154
0001d0 77 f4 cc bc 38 34 85 3b a8 94 a0 3c c3 73 00 bd
       -0.025018914 0.004065063 0.019602135 -0.0313604
0001e0 a7 d4 0b bc 8d 5d 07 38 de d1 9f bb a0 3a 1e 3a
       -0.008534587 3.2273634e-05 -0.004877313 0.00060359575
0001f0 3d 2a 20 3c 2e 9e 90 bb 10 bc 13 3b 3b b3 b2 bb
       0.009775695 -0.0044133877 0.0022542514 -0.005453495
000200 1c 65 26 bc cb c1 d6 ba e1 91 12 bd 9d 5e 25 bc
       -0.010155942 -0.0016384659 -0.035783652 -0.010093358
000210 3c cd 06 bd 42 9c c0 bc c0 7b 9e ba 6c c1 7a ba
       -0.03291057 -0.02351201 -0.0012091324 -0.0009565565
000220 2f bd 09 bd da aa 89 bc 52 2b 98 bc 80 56 eb 3b
       -0.033627685 -0.016805101 -0.018575344 0.0071819425
000230 7e b2 e0 3c 8d fd 6d 3d c9 6e 65 bb a1 7a 7c 3c
       0.027428862 0.058103133 -0.003500866 0.015410096
000240 c1 19 8b 3c fc f8 9f 3c 1f 89 2a 3c 91 24 69 3c
       0.016980054 0.019527905 0.010408669 0.0142299095
000250 18 d2 67 3c d0 e0 e4 b9 59 58 77 bc cb a6 4d 3c
       0.014149211 -0.00043655047 -0.015096747 0.012551974
000260 e7 66 0a bc 2d 6f b9 bc f1 df a6 ba bc 44 88 bc
       -0.008447385 -0.02263602 -0.0012731535 -0.016634338
000270 4a bb 4b 3d b9 6e 78 3c 7a 54 ba bc b9 01 15 3c
       0.04973916 0.015163117 -0.02274536 0.009094649
000280 2e 11 99 3c 85 cf 9a 3c 1a 57 0f 3d 38 c3 aa 3c
       0.01868495 0.018897781 0.034995176 0.02084504
000290 ad 8c 87 bc fe 94 c3 3c f3 fb f7 3b 27 f8 ad bc
       -0.016546572 0.023874756 0.0075678765 -0.021236492
0002a0 7d ee 36 bc 26 ef 60 bc 7a 70 0c 3c 76 9b 66 3c
       -0.0111652585 -0.013728892 0.008571738 0.014075151
0002b0 32 0f b2 bb 4f 1c 5a 3c af b6 ec 3b 72 ba b3 bb
       -0.0054339403 0.013312413 0.007223926 -0.0054848725
0002c0 f7 06 7d 3c 6f 5c f7 bc 55 65 fa 3c f5 f0 1b bd
       0.015443555 -0.030195443 0.030565897 -0.03807159
0002d0 a2 ae e6 3c 39 c0 5d bd 2e 49 8e 3a 70 fb e0 3c
       0.028159443 -0.054138396 0.001085555 0.027463645
0002e0 ac 32 1b bc a4 bd 42 bc dc 82 c0 bc 05 e7 a7 bb
       -0.00947253 -0.011886034 -0.023499899 -0.005123975
0002f0 f1 e5 ee 3b ca df e9 ba 30 f7 87 3c 09 f7 96 3c
       0.0072905947 -0.0017843184 0.01659736 0.018428342
000300 17 40 8a 3a 43 48 69 bb ef ea 41 bc 82 f7 e5 bb
       0.0010547665 -0.003559605 -0.011835798 -0.0070180306
000310 12 fb 98 bb 86 8a e8 b9 ad 3e 43 bb a7 dc 61 bb
       -0.004668602 -0.00044353696 -0.0029791996 -0.0034463794
000320 74 11 da bc 3f eb 93 b9 c4 97 2a 3c 57 1d 4e 3b
       -0.02661965 -0.00028213297 0.01041216 0.0031450593
000330 d8 02 43 bb 14 af 82 3a e4 ee f8 38 4f ec e7 3c
       -0.0029756334 0.000997039 0.000118700584 0.028310923
000340 e0 7d 0d bc 6b 33 01 bd 32 46 84 3c 94 60 42 bb
       -0.008635968 -0.031543177 0.016146753 -0.0029659616
000350 02 ba 06 bd 01 05 5f bc d3 f0 a6 bc c5 e6 5c bb
       -0.032892235 -0.013612033 -0.020378506 -0.0033706885
000360 80 ae 05 3d e8 84 16 3d 90 90 8a bb 37 f1 98 ba
       0.03263712 0.036747843 -0.004228659 -0.0011668567
000370 81 42 9a bc 1d 42 0a 3c 96 f3 ec 3c 92 c5 ac bc
       -0.01883054 0.008438614 0.028924745 -0.021090303
000380 3c ba 17 3c e3 2f 9e 3c bd 37 a9 bb 2c 88 7f bc
       0.00926071 0.019309944 -0.005164115 -0.015596431
000390 14 c7 af bb c4 1f 2d bc 6f 8c d7 3b 50 05 a2 3c
       -0.005364308 -0.010566656 0.0065780203 0.019777924
0003a0 3e ae 39 3c e9 65 e8 3b ce a1 b8 3b 44 88 78 bc
       0.0113330465 0.0070922268 0.005634523 -0.015169207
0003b0 ef fd a8 ba a6 42 31 3c 7c a1 84 bc f3 b5 01 bc
       -0.0012893061 0.010819113 -0.016190283 -0.007916915
0003c0 b6 55 02 3b cc 9f a1 bb 45 67 60 3b 71 8c 88 3a
       0.0019887513 -0.0049323794 0.003424124 0.0010417831
0003d0 bf 8c 05 3b ae 5b 59 bc 79 cf cc 3c 88 4a 1d 3c
       0.002037808 -0.013266487 0.025001274 0.009600289
0003e0 c3 ea 38 3c e1 2c 76 3c 0e 4c 35 bc ab 90 85 3c
       0.01128644 0.015025348 -0.011065496 0.016304335
0003f0 a5 f2 6b bc 46 61 b4 3b 0f 87 69 3a bd e7 8a bc
       -0.014401113 0.00550476 0.000890837 -0.016956205

e_conv6.bias f4 [32]
000000 eb 01 75 bb 7d 06 26 bd c4 60 28 3d ed ae d0 3c
       -0.0037385176 -0.04053353 0.041107908 0.025474036
000010 e0 94 ef 3c 68 da 00 3c 9a 54 b8 3c 8a 6c 6c bc
       0.029245794 0.007864572 0.022501279 -0.014430175
000020 4c a6 fc bc 98 e2 13 3d 7f f5 a1 bc bd 27 fb bc
       -0.030841015 0.03610477 -0.019770382 -0.030658597
000030 81 21 a3 bc 33 7d f7 bc b8 41 bc 3c 51 2b 2d 3d
       -0.019913437 -0.030211067 0.022980556 0.042277638
000040 1f 90 db 3c bf 2c f0 bc 09 17 b2 3a 7c b0 21 bc
       0.02680212 -0.029318212 0.0013587187 -0.009868737
000050 78 d1 eb bc 1c 7e 1b 3d 3f a8 44 3d a4 55 01 3d
       -0.028786406 0.037962064 0.048012014 0.031575814
000060 e0 79 c3 bc a1 44 86 3c cb 3d 90 3b 42 c3 3d bc
       -0.023861825 0.016390147 0.0044018975 -0.011582198
000070 78 d8 1e 3d 01 a4 b8 bc 50 9f 48 3c 7a b2 25 bd
       0.03878066 -0.02253914 0.012245014 -0.04045341
