pretrained_model/ZERODCE_SDAG.pth (torch, 322669 bytes, 14 tensors)

e_conv1.weight f4 [32, 3, 3, 3]
0	0xbacaeaad	-0.0015481316
1	0x3abe92e0	0.0014539622
2	0x3cb03d35	0.02151356
3	0x3ba35689	0.004984681
4	0x3989dffc	0.00026297558
5	0xbce20fee	-0.027595486
6	0xbc4e9cb5	-0.012610604
7	0x3a41ef3b	0.0007398014
8	0x3c530066	0.012878513
9	0x3c7ca3f2	0.015419947
10	0x3be1d25e	0.006891533
11	0x3a93d07f	0.0011277347
12	0xbc05114d	-0.008121801
13	0x3c1d1795	0.009588142
14	0xbbcf660c	-0.0063293036
15	0xbc06a9f9	-0.008219236
16	0x3b44d8d0	0.0030036457
17	0x3c7f966a	0.015599826
18	0xb78cd572	-1.6788694e-05
19	0x3bbb7c7b	0.0057216263
20	0x38de981a	0.00010614116
21	0x3c9cebb9	0.01915537
22	0xbb7a5a73	-0.0038200885
23	0x3b2fae96	0.0026806942
24	0x3cda4d80	0.026648283
25	0xbc362411	-0.011116997
26	0x3b45b577	0.0030167976
27	0x3c49e5ae	0.012322826
28	0xbb04d0f6	-0.0020266152
29	0xba82d463	-0.0009981509
30	0xbafa75ad	-0.0019108556
31	0xba2f8e0a	-0.00066968857
32	0xbb08326d	-0.002078201
33	0xbc26fbdc	-0.010191884
34	0xbcfc3a04	-0.030789383
35	0x3d1e876b	0.038703363
36	0xbb9219ac	-0.0044586267
37	0x3869699b	5.564988e-05
38	0x3c8ed8e3	0.017437404
39	0x3b425862	0.002965473
40	0x3b9dcafe	0.0048154583
41	0xbc098f07	-0.008395917
42	0xbbf656e3	-0.007517682
43	0xbb853d30	-0.004066132
44	0xbc3d0247	-0.0115361875
45	0xbc93d15b	-0.018044164
46	0x3b17f73f	0.0023188142
47	0xbb87fc04	-0.0041499157
48	0xbbab7093	-0.0052319258
49	0x3c87ed72	0.016592715
50	0xbaaf5b6e	-0.0013378689
51	0xbbe66aa6	-0.0070317565
52	0x3c88329b	0.016625693
53	0x39d2be11	0.00040195932
54	0xbae1f81e	-0.0017240082
55	0xbbc21ec3	-0.0059240772
56	0xba8a28e5	-0.0010540752
57	0xbc0aa089	-0.008461126
58	0xb966f6d6	-0.00022026463
59	0xbc04a66b	-0.008096318
60	0xbb0d64d4	-0.002157499
61	0xbc3cee6b	-0.011531453
62	0x3b028dbf	0.0019920913
63	0xbb1dd34e	-0.0024082246
64	0x3a12265f	0.0005575176
65	0x3af1cedb	0.0018448489
66	0xbc33212b	-0.010933201
67	0x3c6763fe	0.014122961
68	0x3af9ea94	0.0019067102
69	0xbce8e4e7	-0.028429462
70	0x3c998255	0.018738905
71	0x3be12d1d	0.006871833
72	0xbcb88788	-0.022525564
73	0x3bfc6228	0.007702131
74	0x3afac422	0.0019131938
75	0xbca8690a	-0.020557899
76	0xbbfc75bc	-0.0077044647
77	0xbbf7722a	-0.007551451
78	0x3b5e9eb5	0.0033969108
79	0xbd1d6cb2	-0.038433738
80	0x3ba11b43	0.00491658
81	0x3d11f9e2	0.035638697
82	0x3a0d2d5d	0.0005385483
83	0xbd082b10	-0.033244193
84	0x3c843e0f	0.016142873
85	0x3c90ac61	0.017660322
86	0x3bfae791	0.0076569994
87	0xbb76e321	-0.0037672
88	0xbc0134a9	-0.00788609
89	0x3cf68b03	0.030095583
90	0x3c71be6c	0.014754873
91	0x3c89512d	0.01676234
92	0x3c9a5eb2	0.018843982
93	0x3ca3eadd	0.020009452
94	0x3acd3660	0.0015656464
95	0xbb3bfed0	-0.0028685816
96	0x3c7ac605	0.015306001
97	0x3c59bf9f	0.013290315
98	0x3d546b61	0.051860217
99	0x3d76c6bc	0.06024812
100	0x3d1f1428	0.038837582
101	0xbc23e111	-0.0100023905
102	0x38d93db4	0.000103588594
103	0x3c30034f	0.010742976
104	0xbc4875a7	-0.012235082
105	0x3c86834b	0.016420027
106	0x3b96452f	0.004585884
107	0x3cd5ab00	0.026082516
108	0x3c8883ce	0.016664412
109	0x3cf2747e	0.029596563
110	0xbc86750a	-0.01641323
111	0x3c76c80a	0.0150623415
112	0xbc9a4307	-0.01883079
113	0xbcab1aa8	-0.020886734
114	0x3c7ce5bd	0.015435633
115	0xbc6cee45	-0.014461105
116	0xbb9766d3	-0.004620412
117	0xbc48caac	-0.012255352
118	0x3cf924a9	0.030412989
119	0xbcfdf579	-0.03100084
120	0xbca93a84	-0.020657785
121	0x3b4b35f8	0.003100751
122	0x3ba3a034	0.004993463
123	0x3cd6ea90	0.026234895
124	0xbca2a1f8	-0.019852623
125	0xbba2f5e1	-0.0049731587
126	0x3d835a0e	0.06413661
127	0xbce5852e	-0.028017607
128	0x3b4db29e	0.0031386982
129	0xbc03c481	-0.008042456
130	0x3cd7e9bc	0.02635657
131	0x3bb04006	0.005378726
132	0x3cb48068	0.022033885
133	0xbc410d55	-0.011782964
134	0x3cbdd82d	0.02317437
135	0xbb392cf8	-0.0028255563
136	0x3b3565af	0.0027679016
137	0xbb048c0f	-0.0020225083
138	0x3ccc63e9	0.024949985
139	0xba9f6dc7	-0.0012163454
140	0xbc52021f	-0.0128178885
141	0xbc4a9b07	-0.012366063
142	0xb9d689aa	-0.00040919828
143	0x3b99cc53	0.004693547
144	0xbaf30f7d	-0.0018544045
145	0xbb937f37	-0.004501249
146	0xbc229e68	-0.009925462
147	0xbba91d9d	-0.005161001
148	0xbb69c427	-0.0035669894
149	0xbc7ce8bd	-0.0154363485
150	0xbbdcb38d	-0.0067352713
151	0xba1ed8c3	-0.00060595217
152	0xbaedd2f6	-0.0018144536
153	0xbb8b1f9f	-0.004245713
154	0x3b3a3461	0.0028412568
155	0xbb64509e	-0.003483809
156	0x3b6d809a	0.0036239983
157	0x399b8a79	0.00029667074
158	0xbc35fd85	-0.011107807
159	0x3cd21c4b	0.025648257
160	0x3ab07d06	0.0013464994
161	0x3b01284d	0.001970786
162	0x3ca0b6ea	0.01961847
163	0xbc901381	-0.017587425
164	0x3c18cb98	0.009325884
165	0xbad6ed6c	-0.0016397662
166	0x3cefb8ad	0.029262865
167	0x3d056936	0.03257104
168	0x3c28bc93	0.010298866
169	0x3c00f3fe	0.007870672
170	0x3d34ff8e	0.04418903
171	0x3cea5eed	0.028609717
172	0xbbb11e83	-0.0054052486
173	0xbb1e303a	-0.0024137632
174	0xbc67cbd2	-0.014147716
175	0xbcff29a7	-0.031147791
176	0x3d2c2934	0.04203148
177	0xbc11053a	-0.008851344
178	0xbca56ea7	-0.020194365
179	0xbb24083f	-0.002502933
180	0x3abb58e2	0.0014293457
181	0x3c03bae3	0.008040163
182	0xbc279b13	-0.010229844
183	0xba99fcb9	-0.0011748291
184	0x3c547335	0.012966921
185	0x3c8fefc5	0.017570386
186	0x3b7c3326	0.0038482635
187	0xbc10e5c7	-0.008843846
188	0x3d48db3c	0.049037203
189	0x3c8df0ec	0.017326795
190	0xbb255070	-0.0025224946
191	0xbb9b2223	-0.004734294
192	0x3b81a207	0.0039560827
193	0xbace753c	-0.0015751491
194	0xbb90925c	-0.0044119786
195	0xbb73b739	-0.0037188067
196	0xbcce6d89	-0.025198715
197	0xbb5a8f21	-0.0033349472
198	0xbc17c7e7	-0.009263969
199	0xbbb1f11c	-0.005430354
200	0xbb8d5e7b	-0.0043142415
201	0xbab3a3cd	-0.0013705433
202	0x3bb1ffe5	0.0054321163
203	0xba7b0757	-0.0009575984
204	0xbac4079c	-0.0014955881
205	0x3ba05014	0.0048923586
206	0x3b77ca87	0.0037809925
207	0xbb31da68	-0.0027138237
208	0xbcd26fc9	-0.025688069
209	0x3b1e080c	0.0024113683
210	0x3b5503cb	0.0032503481
211	0x3c4058ac	0.011739891
212	0x3b97e519	0.004635465
213	0xbcd9e168	-0.02659674
214	0x3c10e858	0.008844458
215	0x3d6112ee	0.054949693
216	0x3cdc0107	0.026855959
217	0x3c816ecd	0.015799904
218	0x3adb0dde	0.0016712507
219	0xbc0b7c60	-0.00851354
220	0x3ba8bb2a	0.005149265
221	0xb92fbb12	-0.0001675899
222	0xba386764	-0.00070344494
223	0x3ccf3516	0.025293868
224	0xbcb9ab1d	-0.022664601
225	0xbb02da74	-0.0019966634
226	0xb9c4f7c8	-0.00037568645
227	0xbd0f571b	-0.03499518
228	0xbc9b03ec	-0.018922769
229	0x3c06053c	0.008179959
230	0x3c4969f5	0.0122933285
231	0x3bc15847	0.005900416
232	0x3b8b1d50	0.0042454377
233	0x3c3269de	0.0108894985
234	0x3b022a26	0.0019861548
235	0xbca1fe46	-0.019774567
236	0x3c5f496b	0.013628344
237	0x3cb08576	0.021548014
238	0x3b50a178	0.0031834524
239	0xba453a7c	-0.00075236685
240	0x3c94809a	0.018127728
241	0x3bde83e1	0.0067906235
242	0x391f13da	0.00015170817
243	0x3c9b4b5b	0.01895683
244	0xbcb9d124	-0.022682734
245	0xbcc1dc74	-0.02366469
246	0xbbd23c07	-0.006415847
247	0x399806f1	0.0002899687
248	0xbb73f2a3	-0.003722348
249	0x3c1138f4	0.008863676
250	0x3cbd10ed	0.02307936
251	0xb9ca1a0e	-0.00038547855
252	0x3b3cee1b	0.0028828445
253	0x3b805f18	0.003917586
254	0x3b16dfe7	0.002302164
255	0xbbd91969	-0.0066253436

e_conv1.bias f4 [32]
0	0xbdebca40	-0.115131855
1	0xbe1403a8	-0.1445452
2	0xbbf163eb	-0.0073666475
3	0xbbc5248f	-0.006016321
4	0x3de23539	0.11045308
5	0xbdb42e04	-0.08797839
6	0x3e0f621f	0.14002274
7	0xbdb2bcdd	-0.08727429
8	0xbdece93e	-0.11567925
9	0xbe1c1a92	-0.15244511
10	0xbdfdbea2	-0.12389876
11	0x3e03778a	0.1283857
12	0xbe33caa0	-0.17557764
13	0x3dba6d66	0.09102897
14	0xbe35a36e	-0.17738125
15	0x3e4b7211	0.19867732
16	0xbe24fbee	-0.16111729
17	0x3dad1d7b	0.084528886
18	0xbd61adbb	-0.055097323
19	0xbcf1ca1f	-0.029515324
20	0x3de7f546	0.11326079
21	0xbd553a8e	-0.052057795
22	0x3c7e4920	0.015520364
23	0xbde2e741	-0.110792644
24	0xbd479eb6	-0.048735343
25	0x3e1bc6a2	0.15212491
26	0xbdfb9447	-0.12284141
27	0xbe12692a	-0.1429793
28	0x3db0b30a	0.08627899
29	0x3e077ce0	0.1323123
30	0xbe0c2c9e	-0.13688895
31	0x3dd00916	0.10157983

e_conv2.weight f4 [32, 32, 3, 3]
0	0xbc2eb3b2	-0.01066296
1	0xbd008594	-0.03137739
2	0x3ae33229	0.0017333674
3	0xbca416de	-0.020030435
4	0xb982fa34	-0.00024981948
5	0xbce0aaf9	-0.027425276
6	0xba5913b7	-0.0008280831
7	0x3c1c2604	0.009530548
8	0xbafd6fed	-0.0019335725
9	0x3a9f1aba	0.0012138702
10	0xba8175ce	-0.0009877027
11	0x3b2f1465	0.0026715037
12	0x3c927d52	0.017882023
13	0xba1c2390	-0.0005956227
14	0xbcaf64ea	-0.021410424
15	0xbb6c9928	-0.003610203
16	0x3bbc2a93	0.00574238
17	0x3bb0d9b3	0.0053970455
18	0x3c011d08	0.007880457
19	0xbcbb15c5	-0.022837529
20	0x3b57f678	0.0032953303
21	0x396ea0d2	0.00022757359
22	0xbb07889c	-0.002068079
23	0xb7cdaee9	-2.4519353e-05
24	0xbc3ac575	-0.0113996165
25	0x3bd2b75a	0.0064305486
26	0xbc0430ce	-0.008068277
27	0x3d08a0c4	0.033356443
28	0x3ce91879	0.028454052
29	0x3bcbdfa8	0.0062217303
30	0x3c8cfc1d	0.01721006
31	0xbb56d441	-0.0032780322
32	0x39b5a20d	0.00034643747
33	0x3ba5ea6c	0.0050633457
34	0x3ae279b0	0.0017278697
35	0x3a9e6513	0.0012084566
36	0x3c015ed3	0.007896143
37	0x3b22e3f7	0.0024855116
38	0x3b34856f	0.0027545353
39	0xb87f70d1	-6.0901806e-05
40	0xbbc97587	-0.0061480436
41	0x3c69a006	0.014259344
42	0x3b8a7531	0.004225396
43	0xbc085866	-0.008321857
44	0x3c181a67	0.009283639
45	0xbc504238	-0.0127111
46	0xbbb60078	-0.005554255
47	0x3c0ba1e6	0.008522486
48	0xbb537783	-0.003226728
49	0xbc939c7e	-0.018018957
50	0xbc3ca7e8	-0.011514641
51	0xbc5f5970	-0.013632163
52	0xbbe99035	-0.0071277865
53	0x3c9c34fd	0.019068236
54	0x3c4c8b34	0.0124843605
55	0xba3345f1	-0.000683873
56	0x3cce03d0	0.025148302
57	0xb876ec85	-5.8871246e-05
58	0xbac6854f	-0.001514593
59	0xbc019561	-0.00790915
60	0x3bbe706b	0.005811741
61	0x3ba275b5	0.0049578794
62	0xba2c4738	-0.0006571892
63	0x3c95170f	0.018199472
64	0xbaf516bf	-0.0018698795
65	0xbbf394f5	-0.0074335285
66	0x3b8b0115	0.0042420723
67	0x3b0601d5	0.002044787
68	0xbc144d78	-0.009051673
69	0x3be0c5a6	0.006859499
70	0xbc9dd6cc	-0.019267462
71	0x3bde283f	0.0067797
72	0x3a8ea4cf	0.0010882857
73	0xbbb25855	-0.005442659
74	0xbc0b554b	-0.008504222
75	0x3c69e7f9	0.014276498
76	0xbb89be27	-0.004203576
77	0xbbc7762c	-0.006087085
78	0x3cad0493	0.021120345
79	0x3c91c2e9	0.017793136
80	0xbc2c9eed	-0.010535938
81	0xbc92a860	-0.017902553
82	0x3b0aee21	0.0021199065
83	0x3c45716b	0.012050967
84	0x3c3e698e	0.011621846
85	0xbc2eacac	-0.010661285
86	0xb988b10b	-0.0002607185
87	0x3c2bec89	0.010493406
88	0xbc2045b3	-0.009782243
89	0xbd2ce457	-0.04220995
90	0xbba466ef	-0.0050171535
91	0xbc3860fd	-0.011253593
92	0x3b09bbbb	0.0021016437
93	0xbabd4a45	-0.001444169
94	0x3c3d4d85	0.011554127
95	0xbd0de482	-0.03464175
96	0x3c33a0e7	0.010963655
97	0x3b04ab3c	0.0020243665
98	0x3c00c80b	0.007860194
99	0x3bf84117	0.0075761187
100	0xbc88abd1	-0.016683491
101	0xba69cbdf	-0.0008918624
102	0x3b26c8e2	0.0025449325
103	0xbacf9c4a	-0.0015839424
104	0x3c487514	0.012234945
105	0x3b1f04a5	0.0024264243
106	0xba7c56c1	-0.00096259644
107	0xbc53e7b8	-0.012933664
108	0xba8b2e7c	-0.0010618712
109	0x3c710718	0.014711164
110	0x3cc86e42	0.024466638
111	0xba92a748	-0.001118877
112	0x3c124512	0.0089276
113	0xbac09475	-0.0014692681
114	0x3c0c2d1b	0.008555676
115	0xbb19b784	-0.002345533
116	0x3ab363cb	0.0013686357
117	0xba21e301	-0.0006175489
118	0xbc2b0b72	-0.0104397405
119	0xbba7b96b	-0.005118539
120	0xbab4fa74	-0.0013807551
121	0x3c062866	0.008188343
122	0x3c9ea336	0.019364934
123	0x3aa4e3b1	0.0012580064
124	0x3c883325	0.01662595
125	0x3c915b9c	0.017743878
126	0xbb0c3887	-0.0021395998
127	0xbbe3f1bf	-0.0069563086
128	0xbb40c80d	-0.0029416115
129	0x3d145f8c	0.036223933
130	0xbc77faf8	-0.015135519
131	0xb88a93e9	-6.607903e-05
132	0x3bdbbce9	0.0067058695
133	0x3bb3a79f	0.0054826285
134	0xbc2c86d6	-0.010530194
135	0xbc625ef8	-0.013816588
136	0x3cfe445d	0.031038458
137	0x3c483204	0.012218956
138	0xbba93dc2	-0.005164833
139	0xbcc7b88a	-0.024379987
140	0x3bd1d225	0.006403225
141	0xbb95a2c5	-0.004566523
142	0xbc10bd64	-0.008834217
143	0xbb1aa1fd	-0.0023595088
144	0x3c1e6f63	0.009670111
145	0xba87c231	-0.0010357556
146	0x3ba185af	0.0049292664
147	0x3c9fa5b8	0.0194882
148	0xbc0af504	-0.008481268
149	0x3c3bf3dd	0.011471716
150	0xbbda4dbd	-0.006662099
151	0xbc5f1d6e	-0.013617856
152	0xbc70a3a0	-0.014687449
153	0x3be4d2cf	0.006983138
154	0xba7c6704	-0.00096283876
155	0x3b01b229	0.001979003
156	0xba564518	-0.0008173748
157	0xbb49edc4	-0.0030811885
158	0x3c6010a7	0.013675845
159	0xbab8e697	-0.0014106807
160	0xbbc3c2ba	-0.005974141
161	0xbb065dce	-0.002050269
162	0x3c3d1e52	0.011542873
163	0xbd1d766c	-0.038443014
164	0xbb06d9ed	-0.0020576671
165	0xb9d7143f	-0.0004102308
166	0x3c37a9b1	0.011209891
167	0xb948c4bb	-0.00019146774
168	0xbbc0ec45	-0.0058875405
169	0x3bc2cc75	0.0059447833
170	0x387365ad	5.8030408e-05
171	0x39c3c0d1	0.00037336958
172	0x39ea6f95	0.00044715093
173	0x3b572e78	0.0032834094
174	0x3a764d26	0.0009395651
175	0xbb5c74f6	-0.003363905
176	0xbc8d239f	-0.0172289
177	0x379a5ac7	1.8400502e-05
178	0x3b36abe5	0.0027873453
179	0xbc9de2d8	-0.019273207
180	0x3bb73cfe	0.0055919876
181	0x3abd2f1b	0.0014433594
182	0xbc05763f	-0.008145868
183	0xb9cfd5f5	-0.00039641527
184	0xbb7495a6	-0.0037320643
185	0x3b21d3ae	0.0024692821
186	0x3b20c0dc	0.0024529016
187	0xbb6119d4	-0.003434767
188	0xbc4ac92f	-0.0123770675
189	0xbc1ffd4a	-0.009764979
190	0x3c822a10	0.015889198
191	0xb9125f22	-0.00013959085
192	0x3bc444b5	0.005989636
193	0xbbebb850	-0.0071936026
194	0x3cf02e6c	0.02931901
195	0xbc4801bd	-0.012207446
196	0x3b40982c	0.0029387577
197	0x3c7fdc01	0.015616418
198	0xbbb009bf	-0.0053722556
199	0x39458682	0.00018837492
200	0x3c7a7090	0.015285626
201	0xbcf1d82e	-0.029522028
202	0xbc2cedf5	-0.01055478
203	0xbc87eafd	-0.016591543
204	0x3c38a222	0.011269124
205	0xbb17aed5	-0.002314498
206	0xbc8c59ce	-0.017132666
207	0x3c8864b1	0.016649576
208	0x3c03715a	0.008022631
209	0xbcb5430c	-0.022126697
210	0xba7b2a36	-0.000958118
211	0x3b10267c	0.0021995595
212	0xbc785f4f	-0.015159442
213	0x3c32b38e	0.010907067
214	0x3be2c39b	0.0069202906
215	0xbcc77b2e	-0.024350729
216	0xbaedae8e	-0.0018133686
217	0x3b7e9f7a	0.003885238
218	0xbba4b658	-0.00502662
219	0xbb83ef72	-0.004026347
220	0xbbb7fa02	-0.00561452
221	0x3c67bf38	0.014144711
222	0xbb106644	-0.0022033611
223	0xbc576dea	-0.013148764
224	0xbc84f11d	-0.016228253
225	0x3c1ce28e	0.009575499
226	0x3b8d151d	0.0043054954
227	0xb9e69557	-0.00043980285
228	0x3d0f3568	0.03496304
229	0x3b67c2cf	0.0035363918
230	0xbc9d22d9	-0.019181656
231	0x3c5d33bf	0.013501107
232	0x3ae095ec	0.0017134524
233	0xb9967aca	-0.00028701714
234	0xbc943be3	-0.018094962
235	0xbc1c07f1	-0.009523378
236	0xbc7fcb86	-0.015612489
237	0xbae9585a	-0.001780282
238	0xbca9b43c	-0.020715825
239	0xbc71f706	-0.014768368
240	0x3ba77a93	0.0051110475
241	0x3c8c608c	0.01713588
242	0x3c5f3e1b	0.013625647
243	0xb910474e	-0.00013759473
244	0x3c8e0b73	0.017339444
245	0x3b0615fb	0.0020459879
246	0x3bd9bc27	0.006644744
247	0x3bae6b35	0.0053228387
248	0xbc5954d3	-0.013264853
249	0xbba0d5b4	-0.004908288
250	0xbca077a4	-0.0195883
251	0xbc248011	-0.010040299
252	0xb9e23d36	-0.00043151685
253	0x3bc31979	0.0059539643
254	0x3c409ec9	0.011756607
255	0xbb90bdf5	-0.004417176

e_conv2.bias f4 [32]
0	0xbd1b4064	-0.037903205
1	0x3cdee7f4	0.027210213
2	0x3d07e964	0.033181563
3	0xbcfa7a38	-0.030575857
4	0x3d1cfa60	0.038324714
5	0x3d2ac409	0.04169086
6	0x3d0d7338	0.03453371
7	0x3d2b6f95	0.04185446
8	0x3c98b08e	0.018638875
9	0xbd00b142	-0.031419046
10	0x3d3621e7	0.044465926
11	0xbca3b554	-0.019983925
12	0x3cee2d22	0.029074255
13	0x3be6418b	0.0070268563
14	0x3d2b9a9f	0.041895505
15	0xbcadc81a	-0.02121358
16	0xbae8d55b	-0.001776378
17	0x3d6faf50	0.0585168
18	0x3c4345f0	0.01191853
19	0x3cbe432c	0.02322539
20	0x3d67b0a8	0.056564957
21	0x3c6a3d1a	0.014296794
22	0xbbda403c	-0.0066604894
23	0x3d411998	0.04714355
24	0xbc56cf21	-0.013110907
25	0xbcfc1d1a	-0.030775595
26	0xbd0f1421	-0.034931306
27	0xbcfeb448	-0.031091824
28	0x3c6a9acd	0.014319134
29	0xbc01579e	-0.007894425
30	0x3d7526e8	0.059851557
31	0x3d02e852	0.03195984

e_conv3.weight f4 [32, 32, 3, 3]
0	0x3c33299e	0.010935215
1	0x3bec1b9e	0.0072054407
2	0xbcbb91ed	-0.022896731
3	0x3c1fa4d1	0.009743885
4	0xbc1c6e89	-0.009547838
5	0x3c08102e	0.008304639
6	0xbba7c155	-0.0051194825
7	0x3be31fd3	0.006931284
8	0x3c2d150f	0.010564103
9	0x3cdfb338	0.027307138
10	0xbd763da1	-0.060117368
11	0x3c6710cb	0.014103125
12	0x3b31e8be	0.0027146782
13	0x3ca8049e	0.020510014
14	0x3c47611e	0.012169151
15	0x3ce333cd	0.027734661
16	0xbcd47563	-0.02593488
17	0x3c4b3e57	0.012405
18	0xbb6c089c	-0.0036015874
19	0x3d0774e5	0.033070464
20	0xbc58f817	-0.013242743
21	0x3d07e38a	0.033175983
22	0x3cebbfa0	0.028777897
23	0xba892b9c	-0.0010465267
24	0xbbee765e	-0.007277294
25	0xbb926baa	-0.004468401
26	0xbc1c54cf	-0.009541704
27	0x3ce1ef90	0.027580053
28	0xba42af93	-0.00074266753
29	0x3bab5d73	0.005229646
30	0xbca1ed74	-0.019766547
31	0x3b8dfe29	0.004333277
32	0xbb7d570b	-0.0038656618
33	0xbb19cc42	-0.0023467694
34	0xbc410c0a	-0.0117826555
35	0x3bb5d9fc	0.0055496674
36	0xbc8a0444	-0.016847737
37	0x3b58432a	0.0032999017
38	0x3a0b6f47	0.0005319011
39	0x3bd3de3e	0.0064657023
40	0x3d2a0e94	0.04151781
41	0x3c1eb730	0.00968723
42	0x3ce11aa6	0.027478527
43	0x3b8773ea	0.004133691
44	0xbb0a755a	-0.0021127076
45	0x3c92bae1	0.017911376
46	0x3cae1a29	0.021252709
47	0x3d7f4a4d	0.062326718
48	0x3d1eb8eb	0.03875057
49	0xbbdd89ba	-0.006760803
50	0x3b2a4441	0.0025980624
51	0xbb5a47cf	-0.0033306961
52	0xbcce527e	-0.02518582
53	0x3cba67e6	0.02275462
54	0xbb3cdcc6	-0.0028818115
55	0xbc82e081	-0.015976192
56	0x3c8993a1	0.016794028
57	0xbc27524f	-0.010212495
58	0x3c825c3d	0.015913123
59	0x3c982333	0.018571472
60	0xbd199eee	-0.037505083
61	0x3d7e78f5	0.062127072
62	0x3c9bf540	0.019037843
63	0xbba24f8f	-0.004953332
64	0x3d0ac69b	0.03388081
65	0xbb8836d5	-0.004156927
66	0xbc418078	-0.0118104145
67	0xbc187175	-0.009304394
68	0xbc4220ab	-0.011848609
69	0xbc146e95	-0.009059568
70	0x3bdd6bf6	0.0067572547
71	0xbcb2d7df	-0.021831451
72	0x3d07e043	0.033172857
73	0xbcd66ea3	-0.026175803
74	0x3b47358f	0.0030396914
75	0xbd13cabb	-0.03608201
76	0xbd055058	-0.032547325
77	0xbbfec101	-0.0077744727
78	0xbb1fa34a	-0.0024358802
79	0xbc45879c	-0.012056258
80	0xba3ae214	-0.0007129025
81	0xbd0265f4	-0.03183551
82	0x3c44b18b	0.01200522
83	0xba5bc6d8	-0.0008383817
84	0xbac4592d	-0.001498019
85	0xb98a56c7	-0.00026386065
86	0x3c6db9cf	0.014509632
87	0xba4e8edd	-0.00078795647
88	0x3cc81034	0.024421789
89	0xbc19248b	-0.009347091
90	0x3d526bb0	0.05137223
91	0x3cf14c78	0.029455408
92	0x3c08c4ee	0.008347733
93	0x3d589b36	0.052882396
94	0x3b9ac944	0.0047236998
95	0x3ced36f9	0.028956877
96	0x3c70987e	0.0146847945
97	0x3c4f0fdc	0.0126380585
98	0x3c50aabd	0.01273602
99	0xbb833324	-0.004003899
100	0x3cd42d4f	0.025900511
101	0xbc1166ac	-0.008874577
102	0x394d7be2	0.00019596473
103	0x3b4fabe5	0.003168815
104	0xbc8d5279	-0.01725124
105	0x3b836557	0.0040098834
106	0x3a216a76	0.00061575265
107	0xbc761e11	-0.015021817
108	0x3bc87d8f	0.0061184834
109	0x3cfd8594	0.030947484
110	0xbcc932fa	-0.02456044
111	0xbc9765a0	-0.018481076
112	0x3bd32d41	0.0064446037
113	0xbb64d39d	-0.003491617
114	0x3c21401c	0.009841945
115	0x3cba7e20	0.02276522
116	0x3cc3b080	0.023887873
117	0x3ca63172	0.02028725
118	0x3d32787b	0.04357193
119	0x3cf0620f	0.029343633
120	0x3d0faf16	0.035079084
121	0xba91f15a	-0.001113455
122	0xbcf2e0e2	-0.029648248
123	0x3bf3ffcc	0.007446265
124	0x3bc90a3f	0.0061352546
125	0xbb395099	-0.00282768
126	0x3d22eb74	0.039775327
127	0x3d2c6495	0.04208811
128	0x3c8d71b2	0.017266128
129	0x3b328d88	0.0027245004
130	0x3c79b22e	0.015240235
131	0x3d3c5fc3	0.045989763
132	0x3ad92384	0.0016566371
133	0x3c4dce87	0.012561447
134	0xbc7d6938	-0.015466981
135	0x3b803ed8	0.0039137416
136	0x3d09fad2	0.033686467
137	0xbc170fba	-0.009220058
138	0x3cb93ce5	0.022612045
139	0x3bd506ee	0.00650107
140	0xbccbd23d	-0.024880523
141	0xbccdfc3f	-0.025144694
142	0x3d1c77e2	0.038200267
143	0x3d1090dc	0.0352944
144	0xbb89e8f9	-0.0042086807
145	0x3a07667c	0.00051651127
146	0x3cb35dec	0.021895371
147	0xbccb7f0c	-0.024840854
148	0xbb7dc053	-0.003871937
149	0x3c9ac0c4	0.018890746
150	0x3a4d3ac4	0.0007828886
151	0xbad623b7	-0.0016337548
152	0x3c906da2	0.017630402
153	0x3c5df56b	0.013547282
154	0x3b9a6461	0.004711673
155	0x3ce0603a	0.027389634
156	0x39e6ee4c	0.00044046564
157	0xbbd8b02a	-0.0066127973
158	0x3b4f39d1	0.0031620155
159	0xbc74d5e2	-0.014943572
160	0xbc868699	-0.016421603
161	0x3c8cb4c2	0.017176036
162	0xba3123a2	-0.0006757324
163	0x3b38e111	0.0028210322
164	0x3c49220b	0.012276183
165	0x3b9b4a78	0.004739102
166	0x3cae5b30	0.021283716
167	0x3b308aed	0.0026938275
168	0x3c9e3f58	0.019317314
169	0x3cc6883a	0.02423488
170	0xbd1d0b2a	-0.038340725
171	0xbce05e13	-0.027388608
172	0x3c8addc5	0.016951451
173	0x3c83733f	0.016046165
174	0x3cc0c151	0.02352968
175	0x3cf18014	0.029480018
176	0x3b183602	0.002322555
177	0xbc414e22	-0.0117984135
178	0x3d2b212b	0.04177968
179	0x3c749802	0.01492882
180	0x3cbb412a	0.022858221
181	0x3b2726dd	0.0025505342
182	0xbce5e1bb	-0.028061738
183	0xbbea20b4	-0.007145012
184	0x3d3d6a43	0.046243917
185	0x3b7db364	0.0038711661
186	0xba5ce0b3	-0.0008425817
187	0xbcc437c4	-0.023952372
188	0x3cb60cc3	0.022222882
189	0xbc06f3ea	-0.008236865
190	0x3cc8f7f3	0.024532294
191	0xbb97ea0a	-0.004636054
192	0xb839c3a0	-4.4289627e-05
193	0x3cb4238f	0.021989612
194	0xbcaafab1	-0.020871492
195	0x3c9b53bd	0.018960828
196	0x3cb8e592	0.022570405
197	0x3c748fdc	0.014926877
198	0x3c38789b	0.011259223
199	0xbb68d947	-0.0035529898
200	0xbc95aa98	-0.018269822
201	0x3b83b91a	0.0040198686
202	0xbb0354bb	-0.0020039517
203	0x39a1b48f	0.0003084284
204	0x3c8b0a57	0.016972704
205	0xbc50f6e0	-0.012754172
206	0xbcaa2152	-0.020767841
207	0x3bf3e869	0.007443477
208	0x3c2eb987	0.01066435
209	0xbaf3fd7d	-0.0018614974
210	0xbce35ff6	-0.027755719
211	0x3c802e0b	0.015646955
212	0x3b093502	0.0020936136
213	0x3cb99ecb	0.022658726
214	0x3c653229	0.01398901
215	0xbb53fcca	-0.003234672
216	0x3b4539a7	0.0030094178
217	0xbc893da0	-0.016753018
218	0xbc46c4ff	-0.0121319285
219	0x3cf068a8	0.029346779
220	0xbb1a918d	-0.002358529
221	0xbbb23990	-0.005438991
222	0xbc495f93	-0.012290853
223	0x39d70ed0	0.00041019032
224	0x3a8a1bf5	0.0010536896
225	0xbbe88731	-0.007096194
226	0x3b657315	0.0035011221
227	0x3cbe915c	0.023262672
228	0x3a80fe40	0.0009841397
229	0xbb926cf3	-0.004468554
230	0x3b387b95	0.0028149833
231	0xbbc00099	-0.0058594462
232	0xbd29c7b7	-0.04145023
233	0x3c479d7b	0.012183542
234	0xbb326387	-0.0027219967
235	0xba593f69	-0.0008287342
236	0xbb483792	-0.00305507
237	0x3c9ebed1	0.019378098
238	0xbb3ebabe	-0.0029103006
239	0x3b307afb	0.002692877
240	0x3bc77594	0.0060870145
241	0xbc461edb	-0.012092317
242	0x3c081cf8	0.008307688
243	0xbc09e32f	-0.008415981
244	0xbb9d60cd	-0.0048027993
245	0x3ba40c32	0.0050063366
246	0x3cb7a951	0.022419604
247	0xbc038bd0	-0.008028939
248	0x3c666235	0.0140615
249	0xbcf0ed98	-0.029410169
250	0xb9f2076f	-0.00046163375
251	0x39240315	0.00015641407
252	0x3b998f05	0.0046862387
253	0xbd438c79	-0.047741387
254	0xbc8bc04e	-0.017059471
255	0xbce3e55d	-0.02781933

e_conv3.bias f4 [32]
0	0x3d1c1b5d	0.038112033
1	0xbbf8441c	-0.0075764786
2	0xbb8c2d6b	-0.004277875
3	0xbd25ff29	-0.040526543
4	0x3d541d0c	0.051785514
5	0xbd0e6d80	-0.034772396
6	0x3cbb9921	0.022900166
7	0x3d66c012	0.056335516
8	0x3d4673ea	0.048450388
9	0x3cd246d8	0.025668547
10	0x3d1ec31a	0.038760282
11	0x3d48fad4	0.049067333
12	0xbca698d9	-0.020336555
13	0x3cf04332	0.029328916
14	0xbd08890c	-0.033333823
15	0xbd0d751c	-0.034535512
16	0xbd17ea63	-0.037088763
17	0x3cac4b9b	0.021032145
18	0xbd3b508f	-0.045731124
19	0x3d55b621	0.052175645
20	0x3ce21132	0.02759609
21	0xbd2c118d	-0.042008925
22	0x3c89c469	0.016817288
23	0xbd106581	-0.03525305
24	0x3cc7bd6e	0.02438232
25	0x3d7a4789	0.061103377
26	0xbd1dbd3d	-0.03851055
27	0xbcef2c06	-0.029195797
28	0x3d69d279	0.057085488
29	0xbc401da5	-0.011725818
30	0xbc656a30	-0.014002368
31	0x3b79213b	0.0038014192

e_conv4.weight f4 [32, 32, 3, 3]
0	0xb9d40048	-0.00040436
1	0x3bf5edfd	0.007505177
2	0x3cd9b71b	0.02657657
3	0x3cc69252	0.024239693
4	0x3cd5e1a1	0.026108565
5	0x3c321df7	0.010871402
6	0x3c381da3	0.011237535
7	0x3c6120bc	0.013740715
8	0xbb5f5dc2	-0.0034082984
9	0x3c493f1e	0.012283115
10	0x3cfdfe2c	0.031004988
11	0xbc928fbf	-0.01789081
12	0x3b165fa9	0.0022945201
13	0x3c5e1900	0.013555765
14	0x3d0e8bac	0.03480117
15	0xbc8ef090	-0.017448694
16	0x3c84dd89	0.016218917
17	0x3bd6b93d	0.006552844
18	0x3c4023b9	0.011727267
19	0xba959e67	-0.0011415005
20	0xbca0ac94	-0.019613542
21	0x3c4cb16f	0.012493475
22	0xba2a4b4c	-0.00064962055
23	0x3b863bde	0.004096492
24	0xbd5e1b0f	-0.054225024
25	0x3bbcad01	0.0057579284
26	0x3cb7004f	0.022339014
27	0x3b9c95f4	0.004778618
28	0xbcf23507	-0.029566301
29	0xbb1ea666	-0.0024208068
30	0x3a18d898	0.0005830615
31	0xbc2301c0	-0.009949148
32	0x3c9709e5	0.018437335
33	0xbc180bd4	-0.009280164
34	0xbb32999d	-0.0027252205
35	0xbc11251d	-0.008858946
36	0xbca4b377	-0.020105107
37	0x3c610f2f	0.01373653
38	0xbcd21e86	-0.02564932
39	0x3c3bd25e	0.01146373
40	0x3cfc044a	0.030763764
41	0x3c49bb3b	0.012312706
42	0x3c5bb551	0.013409928
43	0x3d85fe1b	0.065426074
44	0xbc4d1010	-0.012516037
45	0xbb93a83c	-0.004506139
46	0xbb6db8a0	-0.0036273375
47	0xbc819eba	-0.015822757
48	0x39c83330	0.0003818511
49	0xbc96bcf4	-0.018400647
50	0x3c045779	0.008077496
51	0xbadc25f8	-0.0016795984
52	0x3c9ea7fc	0.01936721
53	0x3bca55d1	0.006174781
54	0x3d8439f9	0.0645637
55	0x3c7b59aa	0.015341202
56	0xbbad993f	-0.0052978094
57	0x3cf389ee	0.029728856
58	0xbc5a8ca9	-0.0133392
59	0x3c3354be	0.010945497
60	0x3d0e7b3f	0.034785505
61	0x3c3d8ef9	0.011569732
62	0xbca03754	-0.019557633
63	0x3c144f6d	0.00905214
64	0xbcc4d056	-0.024025124
65	0x3cf953df	0.0304355
66	0x3ce6d1e3	0.028176254
67	0x3d3857c1	0.045005564
68	0x3c04a690	0.008096352
69	0x3ca4fcf7	0.020140154
70	0x3cba3f31	0.02273521
71	0xbb89ab05	-0.0042012953
72	0xba10db8e	-0.000552588
73	0xbae4b1b4	-0.0017447979
74	0x3ce03d91	0.027373107
75	0xbcc31171	-0.023812028
76	0x3d006fe6	0.031356715
77	0x3c22b282	0.009930255
78	0x3c955ef4	0.018233754
79	0xbc25af78	-0.010112636
80	0x3a49d9e8	0.0007700012
81	0x3cafdb4d	0.021466875
82	0xbc0b1506	-0.008488899
83	0xbbf21be8	-0.0073885806
84	0x3b9baf58	0.004751127
85	0xbb1a96ed	-0.0023588494
86	0xbd2257f6	-0.039634667
87	0xbc99fa2d	-0.01879605
88	0xbb4728db	-0.0030389342
89	0x3c96359d	0.018336112
90	0x39bd2408	0.00036075735
91	0x3d1a103d	0.037613142
92	0x3cf7398d	0.03017881
93	0x3bd1bb6a	0.0064005153
94	0x3aef8aab	0.0018275579
95	0xbc906292	-0.017625127
96	0xbcafaa29	-0.021443443
97	0xbcc9d072	-0.024635527
98	0x3c2dd943	0.010610881
99	0x3c5d6f0d	0.013515246
100	0x3c123ad3	0.008925158
101	0xbcaf7e2a	-0.021422464
102	0x3d56ce0a	0.052442588
103	0x3c8cc79d	0.017185027
104	0x3c85a49d	0.016313845
105	0x3aac9fe8	0.0013170214
106	0xbcabf041	-0.020988585
107	0xbcf3d4c2	-0.029764537
108	0x39fd03ec	0.00048258842
109	0x3d04caba	0.032419898
110	0x3d1b5262	0.037920363
111	0x3d021a24	0.03176321
112	0x3cf3d7ee	0.02976605
113	0x3c207112	0.009792583
114	0x3c334a99	0.010943078
115	0x3ad377ce	0.0016133727
116	0xbb8326d4	-0.0040024314
117	0x3cbffcd9	0.023435997
118	0x3944429d	0.00018716832
119	0x3bfbc438	0.007683303
120	0x3bb55b92	0.0055345977
121	0x3c8d47cd	0.017246151
122	0x3cd542a9	0.026032763
123	0xbcaf5e8a	-0.021407384
124	0x3c05b720	0.008161336
125	0x3d051a5c	0.03249584
126	0xbc23c0a6	-0.009994661
127	0x3d475160	0.04866159
128	0x3c1b50dc	0.009479728
129	0x3c195d71	0.009360657
130	0x3aa98594	0.0012933486
131	0x3b8eb3a1	0.0043549095
132	0x3c086ed4	0.008327205
133	0x3b92f132	0.004484319
134	0xba8e5cb8	-0.0010861373
135	0xba6c8b47	-0.00090234395
136	0xbb208b28	-0.0024497006
137	0x399be135	0.00029731696
138	0xba7beda3	-0.0009610301
139	0x37e3b3b7	2.7144195e-05
140	0x3c3af3ba	0.011410648
141	0xbca4df84	-0.020126112
142	0xbc30181c	-0.010747936
143	0x3a4a97cd	0.00077283086
144	0x3c3f3148	0.011669464
145	0xbc004a05	-0.007830148
146	0x3a6a7b34	0.00089447503
147	0x3cd19594	0.02558402
148	0xbabc3b87	-0.0014361002
149	0x3c01379c	0.007886793
150	0x3b3fd108	0.002926888
151	0x3b0e8abf	0.002175018
152	0xbc8dfffd	-0.017333979
153	0x3cb09e23	0.02155978
154	0x3c179480	0.009251714
155	0x3c1413b4	0.009037901
156	0xba034d3a	-0.0005008761
157	0xbc1d3f1e	-0.009597568
158	0xbc0b2daa	-0.008494774
159	0xb9e59b97	-0.00043794207
160	0xba919b59	-0.0011108919
161	0x3c2c48fd	0.010515449
162	0xbd009c6e	-0.031399183
163	0xbc3ffbd0	-0.011717752
164	0xbc612096	-0.013740679
165	0x3a7688df	0.00094045507
166	0x3c79a108	0.015236147
167	0x3b6fd925	0.0036597934
168	0xbb9d2ede	-0.004796847
169	0xbbf760bb	-0.007549373
170	0x3b920b4f	0.0044569145
171	0x3c17daed	0.009268505
172	0x3c8923c0	0.01674068
173	0x3c54b2fb	0.012982125
174	0x3c521668	0.012822725
175	0x3cff7302	0.03118277
176	0xbc2eea2f	-0.010675951
177	0x3c2d1c05	0.010565762
178	0x3be2799c	0.0069114696
179	0x3c25c458	0.010117613
180	0x3cb49c82	0.022047285
181	0xbb8933af	-0.0041870694
182	0xbc64a339	-0.013954931
183	0xbba50fb6	-0.0050372733
184	0x3c4ac39a	0.012375737
185	0x3c832b98	0.016011998
186	0xbb53f9d3	-0.0032344952
187	0xbbca462a	-0.006172915
188	0x3d3c6c71	0.046001855
189	0x3ca60ef6	0.020270806
190	0xbae41312	-0.0017400703
191	0x3c35a43c	0.01108652
192	0x3c8619bb	0.016369691
193	0x3d435c24	0.047695294
194	0x3b3ebde5	0.0029104885
195	0x3bff00a9	0.007782061
196	0xbb7fa17a	-0.003900616
197	0x399007e5	0.00027471702
198	0x3c3d4db0	0.011554167
199	0x3c54a696	0.01297917
200	0x3c052f5f	0.00812897
201	0x3cc74330	0.02432403
202	0x3d6741af	0.056459125
203	0x3d05e5c9	0.032689843
204	0xbc059ed2	-0.0081555415
205	0x3d39776d	0.04527991
206	0x3d5cf89e	0.053948037
207	0x3bffaa8c	0.007802313
208	0xbacd8521	-0.0015679934
209	0x3c1e50f7	0.009662858
210	0x3b69c6f5	0.0035671566
211	0x3c7b8a11	0.015352742
212	0xbb169598	-0.0022977348
213	0xbcddd85b	-0.027080705
214	0x3b153bf9	0.0022771342
215	0xbae6f822	-0.0017621557
216	0xbc1a627f	-0.009422897
217	0xbd06d33b	-0.03291629
218	0xbd9c4ba2	-0.07631613
219	0xbd4abcec	-0.049496576
220	0xbd841dfc	-0.064510316
221	0xbcaeaeca	-0.02132358
222	0xbcc2ccb9	-0.02377926
223	0xbb342536	-0.0027488
224	0xbc9e03c0	-0.019288898
225	0x3cbcd856	0.023052376
226	0x3c715371	0.014729367
227	0xbcb4c307	-0.022065653
228	0x3a9fab46	0.0012181781
229	0x3bc69406	0.0060601262
230	0x3d0c1028	0.034195095
231	0x3c6aeb5c	0.014338341
232	0x3b8f46ff	0.004372477
233	0x3c8e724d	0.017388487
234	0x3c21bcb8	0.009871654
235	0x3ca5c5fc	0.020236008
236	0x3c95179c	0.018199734
237	0x3c4a06be	0.012330709
238	0x3b8433f9	0.004034516
239	0xbaf5ed3e	-0.001876272
240	0xbc7bfc42	-0.015379967
241	0xbc254f06	-0.010089641
242	0xbbe8f078	-0.0071087442
243	0x3adad841	0.0016696529
244	0x3c26adea	0.0101733
245	0x3c4a8e24	0.0123629905
246	0xbbd2d7ed	-0.0064344318
247	0xbb13f00f	-0.0022573506
248	0xbcb80d92	-0.022467408
249	0xbbeecfb6	-0.0072879447
250	0x3c1843da	0.009293521
251	0xbb7323f4	-0.0037100287
252	0x3c9d0bcd	0.019170666
253	0x3cc1506f	0.023597924
254	0x3c58aba5	0.013224517
255	0x3d288c8e	0.04114967

e_conv4.bias f4 [32]
0	0x3cb8458d	0.022494102
1	0x3cbcc1cd	0.02304163
2	0xbc62b809	-0.013837823
3	0x3d3c4217	0.045961466
4	0xbc9c227a	-0.019059408
5	0x3d838d49	0.064234324
6	0xbc9aa176	-0.018875819
7	0x3d6c4264	0.057680503
8	0x3c941b06	0.018079292
9	0x3c9a63fd	0.018846506
10	0x3cae53f4	0.021280266
11	0x3d52ee25	0.051496644
12	0x3cb503ce	0.02209654
13	0xbc6da4f7	-0.014504663
14	0x3d092f7e	0.033492558
15	0xbcb52272	-0.022111151
16	0x3d74c480	0.05975771
17	0xbd00e06c	-0.031464025
18	0xbc1a7efa	-0.009429688
19	0x3d755577	0.05989596
20	0x3c564f75	0.0130804675
21	0xbd36cbec	-0.04462807
22	0xbc8d6c7d	-0.017263645
23	0x3d1bd06a	0.038040556
24	0x3d6e86a3	0.05823387
25	0x3d78ed16	0.060772978
26	0xbcfb1b91	-0.030652793
27	0xbd285ac6	-0.041102193
28	0xbd006f14	-0.031355932
29	0xbce437b8	-0.0278586
30	0x3d08fc19	0.033443544
31	0xbd2c3a76	-0.04204794

e_conv5.weight f4 [32, 64, 3, 3]
0	0x3d4bea8e	0.049784236
1	0x3c8498cd	0.016186142
2	0x3b15013b	0.002273633
3	0x3ca75479	0.020426022
4	0x3cc54119	0.024078893
5	0x3c9a929f	0.018868743
6	0x3d52ada6	0.051435135
7	0xbc8c1f8d	-0.017104888
8	0xbbc017ae	-0.005862198
9	0x3b0f4735	0.002186251
10	0xbc284c3f	-0.010272085
11	0xbb4ed928	-0.003156254
12	0x3a96c99a	0.0011504174
13	0x3ab175a5	0.0013539089
14	0xbc8f7bef	-0.01751515
15	0xbcbe5739	-0.02323495
16	0x3c852496	0.016252797
17	0x3c3255bd	0.010884699
18	0xbb7108fa	-0.0036779032
19	0x3a82a9b8	0.0009968793
20	0x3a27f806	0.0006407503
21	0x3b42e82a	0.0029740431
22	0xbc10380b	-0.008802424
23	0x3c0b8397	0.00851526
24	0x3add4be1	0.0016883576
25	0xbc8e762e	-0.017390337
26	0xbd0e9a93	-0.034815382
27	0x3b072a5d	0.0020624616
28	0x3cc4e6f3	0.024035906
29	0xbb587591	-0.003302906
30	0x3baf56b5	0.0053509125
31	0x3d05b5d0	0.032644093
32	0x3a6703a4	0.0008812493
33	0xbb12d649	-0.0022405556
34	0xbc6adcd9	-0.014334881
35	0x3b7f87f6	0.003899095
36	0x3bfcc7ba	0.007714239
37	0x3c601665	0.013677214
38	0xbce00fcd	-0.027351284
39	0xbc25d882	-0.01012242
40	0x3d12cb4c	0.03583841
41	0xbabe2234	-0.0014506043
42	0x3d96baf5	0.07359878
43	0xbac85c38	-0.0015286272
44	0x3cf6e9d1	0.03014079
45	0xbce96bcf	-0.02849379
46	0x3b9bf00c	0.0047588404
47	0x3b8ed0e9	0.0043584
48	0xbc80dda5	-0.015730688
49	0xba3054f4	-0.0006726526
50	0x3a868562	0.001026314
51	0x3b5a66a3	0.0033325336
52	0xb9275c83	-0.00015960824
53	0x363b59ea	2.7917508e-06
54	0x3cabf534	0.020990945
55	0xbcab0cb6	-0.020880084
56	0xbd12eb4c	-0.035868928
57	0xbc75f602	-0.015012266
58	0x3c9c8457	0.019106073
59	0xbc2b32a0	-0.010449082
60	0xba265a82	-0.0006345884
61	0x3d117f40	0.035521746
62	0x3ce34cad	0.027746523
63	0x3bb71ce0	0.005588159
64	0x3b41f500	0.0029595494
65	0x3c91d177	0.017800076
66	0x3d1dcb66	0.038524054
67	0x3d4b57da	0.04964433
68	0xbc0f6ada	-0.008753503
69	0xbbd1eb00	-0.006406188
70	0x3d887cdd	0.06664441
71	0x3c8047a8	0.015659168
72	0xbb807ab4	-0.0039208774
73	0xbc5135ff	-0.012769221
74	0x3c034f3d	0.008014497
75	0x3a97f84b	0.0011594383
76	0xbcdc7d3c	-0.026915185
77	0x3cb312fd	0.02185964
78	0x3cc35bf9	0.023847567
79	0x3c90c2cc	0.017671011
80	0xbc45ec42	-0.012080254
81	0x3d6cabb3	0.057780933
82	0x3c89c1f5	0.016816119
83	0x3ca24982	0.019810442
84	0x3c0fb446	0.008771008
85	0xbbeb5cd4	-0.007182697
86	0x3d055d31	0.032559577
87	0xbc0dead9	-0.008661949
88	0xbc54d469	-0.012990096
89	0x3c36e588	0.011163123
90	0xb9e748cd	-0.00044113994
91	0xbc20f40c	-0.00982381
92	0x3c71ae1f	0.014750986
93	0xbca2b16b	-0.01985999
94	0x3c9e181d	0.019298607
95	0x3c362a08	0.0111184195
96	0x3c897176	0.016777735
97	0x3c95082d	0.018192375
98	0x3bcbec9b	0.006223274
99	0x3d77cece	0.06049996
100	0x3b2619b0	0.00253449
101	0xbc4e6b26	-0.012598788
102	0x3bcd158d	0.0062586726
103	0x3d225c18	0.03963861
104	0x3ca76a53	0.020436442
105	0xbcc04967	-0.023472501
106	0x3c5aacf2	0.013346897
107	0xbcd37776	-0.0258138
108	0xbc62b097	-0.013836048
109	0x3c9c60db	0.019089153
110	0xbc999b1c	-0.01875072
111	0x3c8662f5	0.016404608
112	0xbc323e39	-0.010879093
113	0xbcbf4cb6	-0.023352008
114	0xbc63f124	-0.013912473
115	0xbc57f12e	-0.01318006
116	0xbd6da83d	-0.058021773
117	0x3c5707e0	0.013124436
118	0x3ca40424	0.020021506
119	0x3c481200	0.012211323
120	0xbc5031ac	-0.012707155
121	0x3c07ffad	0.008300704
122	0x3c276565	0.010217045
123	0x3c61db73	0.013785231
124	0xbc3ca639	-0.01151424
125	0x3b2a02e5	0.0025941667
126	0xbc966075	-0.018356541
127	0xbce69512	-0.028147254
128	0x3c7bf214	0.01537754
129	0xbbdcb691	-0.006735631
130	0xb8c50272	-9.3941475e-05
131	0xbb5c25ad	-0.0033591792
132	0x3c30a1b4	0.0107807405
133	0xbc0bc123	-0.008529934
134	0x3c6cc8e8	0.014452197
135	0xbc2c006a	-0.010498146
136	0x3addaa54	0.0016911724
137	0x3c476db1	0.012172149
138	0xba61c5a9	-0.00086125225
139	0x3b97d773	0.004633838
140	0xbc5b9b06	-0.01340366
141	0xbb19f1ac	-0.0023489995
142	0xbc788425	-0.015168224
143	0x3ae417d6	0.0017402123
144	0xbb5719a9	-0.003282169
145	0xbca03706	-0.019557487
146	0xbb468657	-0.0030292475
147	0xbc27e474	-0.010247339
148	0x3b039a76	0.002008108
149	0x3b00f828	0.0019679163
150	0xbaece3c0	-0.0018073246
151	0x3c1daf1b	0.009624268
152	0x3cd69e73	0.026198601
153	0xbc2e1c3f	-0.010626852
154	0xbc4ebdd6	-0.012618503
155	0xbc3deeae	-0.01159255
156	0xbca6320d	-0.020287538
157	0x3d6601fb	0.056154232
158	0xbb1f031c	-0.0024263328
159	0x3cde223d	0.027115935
160	0x3aac8e18	0.0013164906
161	0xbcb005b2	-0.02148709
162	0xbcfcc74a	-0.030856747
163	0xbb5050fb	-0.003178655
164	0x3c97dbf7	0.018537505
165	0xbc9ddae2	-0.01926941
166	0x3c8b4f4b	0.017005583
167	0xbc8d58cf	-0.017254261
168	0x3b564a3d	0.0032698058
169	0xbbdc61f2	-0.006725543
170	0x3cc0a171	0.023514481
171	0x3d05c727	0.03266063
172	0xbbd670c0	-0.0065442026
173	0xbbcab4f3	-0.0061861216
174	0x3bdd7fd5	0.0067596235
175	0x3cc7844b	0.024355074
176	0x3bfdbc14	0.007743368
177	0x3b4f7997	0.0031658167
178	0x3c809018	0.01569371
179	0x3c8d9f0b	0.017287752
180	0x3b6743b0	0.0035288148
181	0x3be5569b	0.0069988496
182	0x3c63fbd5	0.013915022
183	0xbb9e9d60	-0.004840538
184	0x3cb6a541	0.022295596
185	0x3b3a11e3	0.002839201
186	0x3ba09dfa	0.004901645
187	0x3cbc2230	0.02296552
188	0x3bb399be	0.005480974
189	0x38ed36f5	0.00011311277
190	0x3b9c88e5	0.0047770613
191	0x3bc52f38	0.006017592
192	0xbb3a7232	-0.0028449413
193	0x3cb3ec08	0.021963134
194	0xbce8bb62	-0.028409664
195	0x3c90b276	0.017663222
196	0xbcabbd7f	-0.020964382
197	0xbb907299	-0.0044081924
198	0xbb7aa4b1	-0.0038245136
199	0xbc5f9912	-0.013647335
200	0x3bbdda08	0.0057938136
201	0x3bacc216	0.0052721603
202	0x3d0ce4eb	0.034398
203	0xbccd0a71	-0.025029393
204	0xbc87036d	-0.016481126
205	0x3c9206b4	0.017825462
206	0xbc2a438d	-0.010392082
207	0xbca76fd2	-0.020439062
208	0xbb886c52	-0.0041633034
209	0xbb838188	-0.004013244
210	0xbc1877e1	-0.009305925
211	0xbcf560ec	-0.029953443
212	0x3cbc82da	0.023011614
213	0x3cee072e	0.029056158
214	0xbc13e0ca	-0.009025762
215	0x3b6b8c7e	0.0035941894
216	0xbaecc897	-0.0018065152
217	0xbc4f9b1b	-0.012671257
218	0xbc0c9ef7	-0.008582822
219	0x3c85881b	0.016300252
220	0xbbc84193	-0.0061113327
221	0xbd6f4187	-0.0584121
222	0xbc24fe72	-0.01007043
223	0x3c388745	0.0112627195
224	0xbcf70752	-0.030154858
225	0x3ccd0e53	0.025031244
226	0x3c1b1201	0.009464742
227	0x3bc009da	0.0058605494
228	0x3c04f62f	0.008115335
229	0xbb148d1f	-0.0022667123
230	0xbcbff50d	-0.023432279
231	0xbbe38b40	-0.00694409
232	0x3ce538cf	0.02798119
233	0xbc0ef2cc	-0.0087248795
234	0xbc2554b2	-0.010090994
235	0x3b19528d	0.0023395151
236	0x3b8b0a2e	0.004243157
237	0x3c3ec10c	0.011642706
238	0xbc0fcacc	-0.008776378
239	0x3a8450f2	0.0010094924
240	0xbbffbb18	-0.0078042857
241	0xbb148c55	-0.0022666652
242	0x3c975909	0.018475072
243	0x3a8cb512	0.0010735116
244	0xba514884	-0.0007983523
245	0x3b92ef4e	0.0044840937
246	0x3c426fd8	0.011867486
247	0xbb82523d	-0.0039770887
248	0x3b619283	0.0034419603
249	0xbb001584	-0.0019544074
250	0x3b8f29c2	0.0043689916
251	0x3c9b9e15	0.018996278
252	0xbbf1bb67	-0.0073770764
253	0x3ce7b537	0.028284652
254	0xbc8d3139	-0.017235385
255	0xbc88c1bf	-0.016693948

e_conv5.bias f4 [32]
0	0x3cac8d63	0.021063512
1	0x3d3a03db	0.045413833
2	0x3cb26099	0.021774577
3	0xbcb2bb93	-0.021817958
4	0x3c8045e4	0.015658326
5	0xbc92d3fd	-0.01792335
6	0x3c22d68e	0.009938849
7	0xbb5da385	-0.003381939
8	0xbd105ca0	-0.035244584
9	0x3cee284a	0.029071946
10	0x3d05a289	0.03262571
11	0xbc5a2dbf	-0.013316571
12	0x3ba97c85	0.0051723146
13	0x3c00859b	0.007844354
14	0x3c80a9c7	0.015705956
15	0xbcd634ea	-0.026148278
16	0xbc61ffca	-0.013793895
17	0x3d080d43	0.033215772
18	0x3d18832c	0.03723447
19	0x3cc1b3c6	0.023645293
20	0x3bf500b4	0.0074768905
21	0x3cc5d19e	0.024147805
22	0xbc98874e	-0.018619206
23	0x3cf6f2c9	0.030145066
24	0x3d2d41e1	0.042299155
25	0xbc86c2f9	-0.016450392
26	0x3d1fdd58	0.03902945
27	0x3c55c013	0.013046282
28	0x3d3b39b5	0.04570933
29	0x3d071e6a	0.03298799
30	0xbcdf4e77	-0.027259095
31	0xbc5c4631	-0.013444469

e_conv6.weight f4 [32, 64, 3, 3]
0	0xb9810f4b	-0.00024616192
1	0x3c666bae	0.014063759
2	0xbc38845e	-0.011262028
3	0x3add2208	0.0016871104
4	0x3bbcdf58	0.0057639293
5	0x3d06e1e3	0.032930266
6	0x3cce24e4	0.025164075
7	0xbd11ea2a	-0.035623707
8	0xbc402ebd	-0.011729893
9	0x3c61940a	0.013768205
10	0x3b13cdb0	0.002255302
11	0x3afe86c9	0.0019418831
12	0x3ca73852	0.020412598
13	0x3cdc802d	0.026916588
14	0xbd39987a	-0.04531143
15	0xbc267758	-0.01016029
16	0xbab0b66c	-0.00134821
17	0xbcab9182	-0.020943407
18	0x3c9aa655	0.018878141
19	0x3d04e8be	0.032448523
20	0x3d52d1c2	0.051469572
21	0x3ca1e558	0.01976268
22	0x3d13f328	0.036120564
23	0xba012165	-0.00049259356
24	0x3ce2772c	0.027644716
25	0x3c81ad7e	0.015829798
26	0xbbcbfe9f	-0.0062254216
27	0xbbf9cd2e	-0.0076233363
28	0x3ab28b8a	0.0013621908
29	0x3c5bb4df	0.013409822
30	0x3bab25e2	0.005223022
31	0x3c9ba289	0.018998401
32	0x3c31da23	0.0108552305
33	0xbb6fe6a7	-0.0036605985
34	0xbc0fb768	-0.008771755
35	0x3bf51280	0.007479012
36	0xb8a2db86	-7.7656514e-05
37	0xbcd3b9df	-0.025845466
38	0xbd39bff2	-0.04534907
39	0x3bedbf04	0.007255437
40	0x3cc81ea7	0.024428679
41	0xbbce2f51	-0.0062922616
42	0xbcfd9f7c	-0.030959837
43	0x3bbb6211	0.0057184775
44	0x3d0ad373	0.03389306
45	0x3cb0f2a7	0.02160008
46	0x3cc5425b	0.024079492
47	0x3cf9260e	0.030413654
48	0x3cc7bd70	0.024382323
49	0x3cba3827	0.022731854
50	0x3ce2b3e1	0.027673664
51	0x3ceb0177	0.028687222
52	0x3c2c0786	0.010499841
53	0xbd037709	-0.032095943
54	0x3d370391	0.044681136
55	0x3c997230	0.018731207
56	0xbbf72a56	-0.0075428886
57	0x3d1f34d5	0.038868744
58	0x3bdb8373	0.0066990196
59	0x3c040ee2	0.008060189
60	0xbd19beda	-0.037535526
61	0x3a9b42e3	0.0011845495
62	0x3c724bd6	0.0147885885
63	0x3b932e88	0.004491631
64	0xbbad6866	-0.0052919863
65	0x3c7649d9	0.015032255
66	0xbc2c9876	-0.010534396
67	0x3d0c4130	0.034241855
68	0xbbef05ba	-0.007294384
69	0xbc9cd690	-0.01914528
70	0x3ced3ad2	0.028958712
71	0x3c5ffe50	0.013671473
72	0x39addb8e	0.00033160712
73	0x3d149280	0.036272526
74	0xbab19bc0	-0.0013550445
75	0x3c9afe38	0.01892005
76	0x3b0d5c49	0.0021569899
77	0xbbd35a69	-0.0064499867
78	0xbc7da1dc	-0.015480485
79	0xbb46ade8	-0.0030316059
80	0xbceca224	-0.028885908
81	0x3c1b4eaf	0.009479209
82	0x3b1bddf5	0.002378342
83	0x3b169319	0.002297586
84	0x3a6feddf	0.0009152572
85	0x3b98b50d	0.004660255
86	0x3b50ec02	0.0031878953
87	0x3b43ed05	0.0029895913
88	0xb932bc27	-0.00017045495
89	0xbce9968a	-0.028514165
90	0x386c4145	5.632757e-05
91	0x3cc82cd6	0.024435442
92	0xbcadc6bb	-0.021212926
93	0x3d4e2d2c	0.050336048
94	0xbc9a7d82	-0.018858675
95	0x3c723cc5	0.014784996
96	0xbc42eaf3	-0.011896837
97	0x3c094c17	0.008379958
98	0x3ccef2e5	0.025262306
99	0x3a6b3842	0.00089729216
100	0x3d1aedb5	0.03782435
101	0xbc9de3ac	-0.019273601
102	0xbb36e3cb	-0.0027906771
103	0x3d66f46c	0.056385443
104	0xbccb781f	-0.024837552
105	0x3a3e3815	0.00072562817
106	0xbc9ab351	-0.018884333
107	0x3b305ccf	0.0026910787
108	0x3cd5253f	0.026018737
109	0x3c3bd8c2	0.011465253
110	0xbc81bca4	-0.015837021
111	0x3c510cb2	0.012759374
112	0x3bcb901d	0.006212248
113	0x39e07e24	0.00042818591
114	0xbca5e727	-0.020251824
115	0x3b920a19	0.00445677
116	0x3b9da47f	0.004810869
117	0xba8852cb	-0.0010400651
118	0x3bcd5980	0.0062667727
119	0xbc87b188	-0.016564146
120	0xbbc4a179	-0.0060006944
121	0x3c1c0e8a	0.009524951
122	0x3c79ce5c	0.015246954
123	0xbc026e7a	-0.00796091
124	0x3bd37e98	0.0064543
125	0x3c3b1596	0.011418721
126	0xbaa535e4	-0.0012604562
127	0x3c49d61e	0.012319116
128	0xbc1eeb6c	-0.009699684
129	0xbb85b772	-0.0040807063
130	0xbb446941	-0.0029969963
131	0x3c669f67	0.01407609
132	0x3cc72f0d	0.024314428
133	0xbc0a9842	-0.008459153
134	0xba5bbdaa	-0.0008382449
135	0x3a90a684	0.0011035954
136	0x3c0143c6	0.007889694
137	0x3ce69f2b	0.02815207
138	0xbce36c63	-0.027761644
139	0xbca3bb20	-0.01998669
140	0x3c14a3f5	0.0090722935
141	0x3c90a1bf	0.017655252
142	0x3c8a94b5	0.016916612
143	0x3b40ec5b	0.0029437754
144	0xbc0f97a8	-0.008764185
145	0x3b9f88b1	0.00486859
146	0x3d438eff	0.047743794
147	0xb9e7f339	-0.00044240968
148	0xba5e21bb	-0.0008473654
149	0x3d1be8e9	0.038063917
150	0xbcd028f4	-0.025410153
151	0x3ce7fd4d	0.028319025
152	0x3ca16e0c	0.019705795
153	0x3b30217b	0.0026875425
154	0x3d197f60	0.03747499
155	0x3ba98ec1	0.0051744883
156	0x3c43cc99	0.011950635
157	0xbcb5393f	-0.022122024
158	0x3c8f3aab	0.01748403
159	0xbc650a7b	-0.0139795495
160	0xbb868ac2	-0.0041058967
161	0x3ad639ff	0.0016344188
162	0x3cbee81b	0.023304036
163	0x3c18aca2	0.009318503
164	0xbc856c23	-0.016286915
165	0x3cf9864a	0.030459542
166	0x3ca740bf	0.020416616
167	0x3bcb01ac	0.0061952677
168	0xbc4d49ce	-0.012529803
169	0x3cc42e40	0.023947835
170	0x3b13f353	0.0022575452
171	0xbb79229c	-0.0038015014
172	0xbc3f6efe	-0.011684177
173	0x3b967719	0.0045918343
174	0x3a1a1193	0.00058772526
175	0x3c598f1d	0.01327875
176	0x3d0c0d30	0.034192264
177	0x3cd5f11b	0.026115945
178	0xbc3eb154	-0.011638958
179	0x3c9aa00a	0.01887514
180	0xbba07965	-0.004897284
181	0xbbde1b60	-0.0067781657
182	0x3d489e2b	0.048978966
183	0x3c986844	0.018604405
184	0x3c7c1542	0.015385928
185	0xbd2bb083	-0.04191638
186	0xbb8628d8	-0.0040942244
187	0x3d0f5a75	0.034998376
188	0x3c4f9ad6	0.012671193
189	0xbc85af30	-0.016318887
190	0x3d1f59d8	0.03890404
191	0xbc052f92	-0.008129017
192	0x3baea0fd	0.00532925
193	0xbcc5633d	-0.024095172
194	0xbc37ebe6	-0.011225676
195	0x3caa16bf	0.0207628
196	0x3d25c89c	0.04047452
197	0x3d7dcb6b	0.061961573
198	0x3c9a5026	0.018837046
199	0x3c973ea3	0.018462485
200	0x3c439fd7	0.011939964
201	0x3ca3c3d5	0.01999084
202	0x3b2dd25b	0.0026523087
203	0xba697932	-0.0008906304
204	0xbaa66ed1	-0.0012697821
205	0xb9670430	-0.00022031437
206	0x3a5c70b4	0.0008409128
207	0x3c0af5c9	0.008481451
208	0xbb9754ab	-0.0046182475
209	0x3ca36568	0.019945815
210	0x3c080a10	0.00830318
211	0x3cf0f7f4	0.029415108
212	0x3c219aac	0.009863537
213	0x3bac5995	0.0052597024
214	0xbd0cb396	-0.034350954
215	0xbd4455dc	-0.047933444
216	0xbca253c1	-0.019815328
217	0xbcfe152c	-0.031015955
218	0x3b171c13	0.0023057505
219	0xba3c8077	-0.00071907736
220	0x3d1270d8	0.035752147
221	0xbc60d303	-0.013722184
222	0xbc161dd6	-0.009162387
223	0x3c4357b1	0.011922763
224	0x3c012429	0.007882156
225	0xbb97cf47	-0.0046328637
226	0x3c2d79fb	0.010588164
227	0x3aa9ac8a	0.0012945097
228	0x3b1e03e5	0.0024111208
229	0x3c382c05	0.011240964
230	0xba707693	-0.00091729424
231	0x3c87c1b5	0.016571859
232	0x3a365336	0.00069551484
233	0xbbd35ab6	-0.0064500226
234	0x3cbe3f5a	0.023223568
235	0x3ca3ded1	0.020003708
236	0x3cf793e9	0.030221896
237	0xbc86335c	-0.016381912
238	0x3c186d5b	0.009303416
239	0xbba5e15f	-0.0050622667
240	0x3b8e2b4e	0.0043386584
241	0xbc330e7c	-0.010928746
242	0x3cab670e	0.020923164
243	0xbc29b90e	-0.010359062
244	0x3b427c36	0.0029676086
245	0xbb9821b0	-0.0046426877
246	0x3ad4aff6	0.0016226757
247	0x3bf07900	0.007338643
248	0x3a4b7e52	0.00077626586
249	0x3a3055c1	0.00067266455
250	0x3cb6e86f	0.02232763
251	0x3a38ffdc	0.0007057169
252	0x3b15ab2b	0.002283762
253	0x3a5062fd	0.0007949321
254	0xbc0172a0	-0.007900864
255	0xbc73c716	-0.014879009

e_conv6.bias f4 [32]
0	0x3d02c21f	0.03192341
1	0x3b44a160	0.0030003414
2	0x3c988735	0.01861916
3	0x3d0be142	0.03415037
4	0x3cb17a27	0.021664692
5	0x3c64b4d4	0.013959128
6	0x3cffcdd5	0.031226078
7	0x3c861cf7	0.016371233
8	0x3d3a1ff4	0.04544063
9	0x3d392bec	0.045207903
10	0x3c89aa0f	0.016804723
11	0xbb4a250a	-0.003084483
12	0x3c43c1a3	0.011948022
13	0x3c330ed9	0.010928833
14	0x3c604199	0.013687515
15	0x3c6409d0	0.013918355
16	0x3ca97a76	0.020688277
17	0x3d3f8256	0.046755157
18	0x3d3491d0	0.04408437
19	0xbcc05ef8	-0.023482785
20	0xb910a3ae	-0.00013793886
21	0x3cf55239	0.029946433
22	0xbd226710	-0.03964907
23	0x3cdde58d	0.027086997
24	0x3d1b4350	0.03790599
25	0x3cab2b98	0.02089481
26	0xbd124dfc	-0.035718903
27	0x3d42e420	0.04758084
28	0xbcb607f8	-0.022220597
29	0xbc00e11b	-0.007866169
30	0xbc21e911	-0.0098822275
31	0x3d06ed1b	0.032940965
